src/notebooks/demo_model.pth (torch, 46455 bytes, 8 tensors)

mlp.0.weight f4 [64, 34]
-0.4133181 -1.0880824 -0.49901327 -0.3622318 -0.5951005 -0.34071 -0.48639974 -0.4360809
-0.5894601 -0.38566038 -0.6612668 -0.55274427 -0.6473197 -0.35270014 -0.44783044 -0.60744065
-0.43990254 -0.58044404 0.31134084 -0.10059966 -0.031027094 -0.018875228 -0.17621848 0.055099074
0.023330564 -0.0008968192 -0.08323734 -0.15202624 -0.001920173 0.016508458 0.01918015 0.07927957
0.018020341 -0.07837047 0.20965113 -0.8529694 -0.09593291 -0.14273213 0.037887037 0.018670699
-0.07210805 0.030764828 -0.2347135 -0.0049986583 -0.24145229 -0.07532653 -0.014063626 -0.1522162
-0.14728108 -0.1781807 -0.069076575 -0.19163924 0.019724136 -0.12017455 -0.15276793 -0.14676917
-0.00074196374 -0.18514577 -0.13447753 -0.14114271 -0.02064032 -0.2224995 -0.037394714 -0.058959033
-0.03406347 -0.0033275126 0.03547207 0.0070816046 1.0077 0.70906335 0.6474305 0.6526802
0.7657739 0.7908698 0.8363908 0.74945813 0.843033 0.79208595 0.86824113 0.7952724
0.9000293 0.89602244 0.7465465 0.6672791 0.6266513 0.66079426 -0.5374874 -0.32619986
-0.1463685 -0.03966673 0.12115531 -0.19030662 -0.15287587 0.05660472 0.024742454 -0.1200216
0.0361099 -0.14079122 -0.040240582 0.0132915275 -0.13477814 0.11233008 0.8978567 -0.18601993
0.71645087 0.7710773 0.5393224 0.67737824 0.7661541 0.56064093 0.6722977 0.5614441
0.5967512 0.7354704 0.6901699 0.6636895 0.6955556 0.5237703 0.7018699 0.67978907
-0.35884383 -0.12781754 -0.065158315 -0.043492533 -0.19791691 -0.16176449 -0.118013 -0.016574506
-0.22898461 -0.06734934 0.05561628 0.013605618 -0.0011101009 -0.02437982 -0.03625125 -0.15353127
0.0025256334 0.008415009 0.15484463 -0.10803516 -0.13723479 -0.17157209 0.014836993 0.10649378
-0.10816 0.02355652 -0.08390146 -0.08182111 -0.10052147 0.09443635 0.12647812 0.09063818
0.1353138 -0.03236675 0.06700232 -0.07950729 0.06975755 0.06923813 -0.07579784 0.067573495
0.080835655 -0.061695218 -0.14943849 -0.034023788 0.11775238 -0.11595476 0.13370028 0.115497656
0.12709995 -0.13350561 -0.7429153 -0.677651 0.01292572 0.115254365 0.105174966 0.031546474
-0.15892522 -0.033827342 0.09680344 -0.12239522 -0.15754057 -0.1112248 -0.05123934 0.16521473
-0.072497346 0.10963715 -0.0048490306 -0.04917812 -0.18992037 -0.0046687303 -0.061483916 0.054899212
0.063533545 0.054786034 -0.22487496 -0.043745607 0.040846 -0.26789564 -0.22171256 -0.20550565
-0.052699074 -0.039162066 -0.22019343 -0.04506779 -0.3478325 0.5670701 -0.22011586 -0.600586
-0.6360705 -0.42378232 -0.6116714 -0.3534684 -0.60752314 -0.35122487 -0.3701205 -0.3609692
-0.43536326 -0.40489614 -0.35556123 -0.5101301 -0.46674836 -0.37972242 0.0845498 0.21718973
0.049459837 0.083275974 -0.16824988 0.053928707 -0.033235174 -0.00850837 -0.062833436 -0.16364652
-0.1252612 -0.01904412 -0.18286641 0.15932289 0.04409701 -0.014213215 1.0226985 -0.2816596
0.4274764 0.21227928 0.1833536 0.12403509 0.20063646 0.37539178 0.14428231 0.15531364
0.32781488 0.41349515 0.19269997 0.15810595 0.22808489 0.23220028 0.37583536 0.16854109
00000000: 6e9e d3be 4946 8bbf ab7e ffbe 7276 b9be
00000010: 8258 18bf 8b71 aebe 6309 f9be ff45 dfbe
00000020: dbe6 16bf 4775 c5be c848 29bf a680 0dbf
00000030: beb6 25bf 1d95 b4be 084a e5be 3b81 1bbf
00000040: e83a e1be fb97 14bf 1168 9f3e 3207 cebd
00000050: 882c febc 39a0 9abc 9e72 34be 91af 613d
00000060: bd1f bf3c 8518 6bba 5778 aabd c4ac 1bbe
00000070: 50ae fbba bf3c 873c b11f 9d3c 545d a23d
00000080: 659f 933c b280 a0bd c9ae 563e 345c 5abf
00000090: 7978 c4bd 5f28 12be 702f 1b3d 4bf3 983c
000000a0: 63ad 93bd 8506 fc3c bc58 70be c9cb a3bb
000000b0: 453f 77be cc44 9abd 1f6b 66bc 90de 1bbe
000000c0: dad0 16be 0075 36be 0578 8dbd 143d 44be
000000d0: 8394 a13c 131e f6bd 326f 1cbe a84a 16be
000000e0: 5880 42ba da96 3dbe 7ab4 09be b787 10be
000000f0: e315 a9bc e9d6 63be 332b 19bd 077f 71bd
00000100: 2386 0bbd 6612 5abb 294b 113d ce0c e83b
00000110: 50fc 803f 2d85 353f 01be 253f 0d16 273f
00000120: c209 443f 7176 4a3f b51d 563f 7ddc 3f3f
00000130: 03d1 573f 25c6 4a3f 0d45 5e3f f996 4b3f
00000140: 5268 663f ba61 653f ac1d 3f3f ced2 2a3f
00000150: 386c 203f d029 293f c698 09bf ab03 a7be
00000160: a0e1 15be 9579 22bd 4620 f83d bddf 42be
00000170: 7e8b 1cbe 5ada 673d b0b0 ca3c e2cd f5bd
00000180: f9e7 133d 932b 10be 4fd3 24bd b5c4 593c
00000190: 4803 0abe 500d e63d f0d9 653f 027c 3ebe
000001a0: 5369 373f 5265 453f 0811 0a3f a968 2d3f
000001b0: ad22 443f 2a86 0f3f b41b 2c3f cdba 0f3f
000001c0: b0c4 183f ca47 3c3f f9ae 303f 8ee7 293f
000001d0: ef0f 323f cf15 063f bfad 333f a806 2e3f
000001e0: 61ba b7be 9ae2 02be b971 85bd 3a25 32bd
000001f0: bbaa 4abe 97a5 25be cdb0 f1bd 42c7 87bc
00000200: f17a 6abe 73ee 89bd e5cd 633d 19ea 5e3c
00000210: ce80 91ba 30b8 c7bc 317c 14bd 4d37 1dbe
00000220: 1985 253b 1bdf 093c 978f 1e3e 8a41 ddbd
00000230: 4787 0cbe 98b0 2fbe dc16 733c 6919 da3d
00000240: fd82 ddbd 9af9 c03c 87d4 abbd d391 a7bd
00000250: 33de cdbd d867 c13d 7b83 013e 83a0 b93d
00000260: b38f 0a3e ff92 04bd 8338 893d b8d4 a2bd
00000270: 0cdd 8e3d b8cc 8d3d e63b 9bbd f963 8a3d
00000280: 2a8d a53d 20b4 7cbd 6706 19be 875c 0bbd
00000290: 2928 f13d b079 edbd bae8 083e 098a ec3d
000002a0: 7d26 023e b2b5 08be b22f 3ebf 897a 2dbf
000002b0: 66c6 533c 7b0a ec3d f965 d73d e036 013d
000002c0: 4bbd 22be 8a8e 0abd e240 c63d 58aa fabd
000002d0: 5152 21be d4c9 e3bd 58e0 51bd 0d2e 293e
000002e0: 7d79 94bd 7189 e03d 9ee4 9ebb ff6e 49bd
000002f0: 7c7a 42be 26fc 98bb 8fd6 7bbd ffdd 603d
00000300: e01d 823d 5267 603d 9f45 66be 982e 33bd
00000310: 234e 273d 9e29 89be 9e08 63be 1370 52be
00000320: fcda 57bd 6768 20bd 637a 61be 0199 38bd
00000330: 1a17 b2be 822b 113f 0d66 61be 01c0 19bf
00000340: 84d5 22bf fff9 d8be 7f96 1cbf cff9 b4be
00000350: a386 1bbf bfd3 b3be 6f80 bdbe f4d0 b8be
00000360: efe7 debe 8c4e cfbe 1f0c b6be e397 02bf
00000370: a4f9 eebe fa6a c2be 7228 ad3d fc66 5e3e
00000380: 6696 4a3d 988c aa3d b249 2cbe 59e4 5c3d
00000390: 9b21 08bd b166 0bbc d1ae 80bd f492 27be
000003a0: 7944 00be 6a02 9cbc 5541 3bbe 8a25 233e
000003b0: 119f 343d 8bde 68bc c9e7 823f b035 90be
000003c0: 30de da3e bd5f 593e 0cc1 3b3e 1c06 fe3d
000003d0: a573 4d3e 5a33 c03e bebe 133e 8a0a 1f3e
000003e0: 5ad7 a73e a3b5 d33e 2453 453e 87e6 213e
000003f0: 168f 693e e9c5 6d3e 7e6d c03e 0996 2c3e

mlp.0.bias f4 [64]
-0.16213827 0.0857543 -0.16732703 -0.15016955 -0.03576986 -0.123215415 0.029894121 -0.054576535
0.0779512 0.011439187 0.043283846 -0.10538793 0.14075488 0.07738843 0.096931465 0.122268565
-0.1690792 -0.00074008905 -0.13032186 0.007822727 -0.12846436 -0.15699278 -0.024300694 -0.13975546
0.16316077 -0.09701558 0.041444793 -0.15384689 -0.07342261 0.06549963 0.18402661 -0.1570134
0.052886575 0.1513525 -0.06710652 -0.0023664439 -0.20656203 -0.052408308 0.18804313 -0.088482656
0.012353314 -0.0014841375 0.10776808 0.050884657 -0.10170834 0.07615347 -0.029533617 -0.020982504
0.0089050755 -0.072573036 0.09747808 0.037939023 -0.12274879 -0.094362274 0.009335972 -0.06227379
0.06478679 0.08352104 0.0414064 0.025205398 0.03953842 0.01845925 0.022853158 -0.07289753
00000000: 9307 26be f39f af3d c757 2bbe 0cc6 19be
00000010: 6b83 12bd 5d58 fcbd 84e4 f43c a58b 5fbd
00000020: e1a4 9f3d 6e6b 3b3c 674a 313d a1d5 d7bd
00000030: 0c22 103e d37d 9e3d 0184 c63d f167 fa3d
00000040: 1923 2dbe 8902 42ba 1873 05be e52a 003c
00000050: 298c 03be b7c2 20be 4012 c7bc 0e1c 0fbe
00000060: 9e13 273e 1bb0 c6bd 04c2 293d 0a8a 1dbe
00000070: 985e 96bd ac24 863d 7971 3c3e 1fc8 20be
00000080: 989f 583d 26fc 1a3e 256f 89bd 5716 1bbb
00000090: ff84 53be 18aa 56bd 618e 403e 6536 b5bd
000000a0: 8e65 4a3c 6487 c2ba 83b5 dc3d 6e6c 503d
000000b0: 764c d0bd 5af6 9b3d 7cf0 f1bc 80e3 abbc
000000c0: 98e6 113c 2ca1 94bd 96a2 c73d f365 1b3d
000000d0: b863 fbbd 0241 c1bd e8f5 183c cd12 7fbd
000000e0: f0ae 843d 140d ab3d c299 293d 8d7b ce3c
000000f0: 0af3 213d da37 973c 8c36 bb3c 4d4b 95bd

mlp.2.weight f4 [64, 64]
-0.110778295 0.20699416 0.029883135 -0.27745613 0.11476278 -0.08647993 0.01908461 -0.08686375
0.24550705 0.1872658 0.0024415462 -0.004432015 -0.4979693 -0.08061216 0.106186815 0.05021105
-0.05777775 0.043289427 -0.32628372 -0.110788144 0.0751983 -0.2503672 -0.14651786 -0.18433768
-0.08763953 0.082875475 0.0064015584 -0.1510345 -0.18682417 -0.51222575 -0.54891014 0.1050493
0.19664133 -0.42775488 -0.14746904 -0.042779032 0.009693552 -0.022203436 -0.1494802 0.16829112
-0.1802833 0.11079932 -0.48050705 -0.19700186 -0.34508038 -0.12003508 -0.20319681 0.12780106
-0.025974879 0.050978296 -0.0003708093 -0.11471315 0.022550521 0.07320793 -0.030007306 -0.27651653
-0.24768065 0.15289554 -0.027307788 -0.07349346 0.077574804 0.14245994 -0.46058595 0.1379537
-0.967046 -0.03361122 -0.11716227 -0.06553007 -0.06749331 -0.097457424 0.19593716 -0.24837498
-0.40681177 -0.41778105 -0.31200245 0.44765472 -0.1934566 -0.11368155 -1.1421968 -0.0303152
0.25136226 -0.656635 -0.12463819 0.13898264 0.057455096 -0.01411596 0.4308593 0.19040936
-0.63549834 -0.011221993 -0.9449123 0.15782864 0.40715864 0.30287972 -1.3004205 -0.4413091
-0.19596787 0.06497858 -0.17052753 -0.4884331 0.21545199 0.48270726 -0.78110147 -0.6622203
-1.2592324 -0.7794085 -0.446429 -0.28459677 -0.13178341 0.105002694 0.12332465 -0.31607237
0.15470026 -0.73367923 -0.27889788 -0.45432314 -0.1529716 -0.63753164 -0.9958261 -0.21476407
0.061854977 -0.10174765 -0.33090737 0.3293514 -0.04749549 -0.13542117 0.021844773 0.22517663
0.07721095 0.07202556 -0.34676915 -0.28445435 -0.0071442216 -0.02720412 0.0868705 -0.11914207
-0.10688987 -0.077622555 -0.0061776526 0.11831045 0.25133505 -0.048050355 -0.05123238 -0.030209182
0.0353622 -0.16095193 -0.06566025 -0.036685284 0.0051847915 -0.34825486 -0.014677525 -0.24331753
-0.12086609 -0.028792595 -0.12178031 0.09651545 -0.03300549 0.23188677 0.30610067 0.100879274
-0.061675865 0.22792538 -0.115477175 0.13233152 0.12847698 0.13759334 0.037286364 0.08468142
0.2579035 0.08989406 0.0062410682 -0.10953804 -0.32090726 0.050789867 -0.24208596 -0.02539608
-0.11609674 -0.0460994 0.008281941 0.21025053 -0.10474322 0.17436229 -0.02413034 -0.15286574
0.15365894 -0.012320026 -2.1930591e-05 -0.16968127 0.058063835 0.1275312 0.33928472 0.04334531
-0.35355493 -0.08946348 0.49521822 0.5631336 -0.054390017 0.15688707 -0.21222594 0.13935678
0.12601443 -0.5544933 -0.1024695 0.23482288 -0.5986848 0.06710867 0.13943762 -0.0010293308
-0.027727373 -0.9916323 0.26800027 0.42663965 0.005824204 0.51056844 0.6371625 0.54051214
-0.93527144 -0.028171312 -1.3622489 -0.123115875 0.5311676 0.27487937 -0.7432506 0.11004676
-0.16798896 0.1800922 0.40180847 0.08814962 -0.1845822 -0.046726305 -1.6628798 -0.9445563
0.23135549 0.29290888 -0.49324968 0.2191231 0.6421598 0.19031079 0.50333077 -0.25878885
0.5813588 0.037231714 -0.6963521 0.08756541 0.15974575 -0.7635596 -1.1398033 0.2622631
0.21078521 -0.17699254 0.45351413 0.45360175 -0.17341144 -0.2117229 -0.36732662 -0.13086517
00000000: bbdf e2bd 47f6 533e 7acd f43c bb0e 8ebe
00000010: c008 eb3d 641c b1bd 5457 9c3c 9fe5 b1bd
00000020: 3366 7b3e 9bc2 3f3e 5902 203b 703a 91bb
00000030: d5f5 febe fd17 a5bd 7978 d93d 1aaa 4d3d
00000040: 5da8 6cbd 4150 313d a90e a7be e5e4 e2bd
00000050: 9101 9a3d 2130 80be c708 16be 04c3 3cbe
00000060: 5b7c b3bd 9eba a93d 2ac4 d13b caa8 1abe
00000070: d64e 3fbe 3a21 03bf 6085 0cbf 1624 d73d
00000080: 585c 493e b002 dbbe 2002 17be 1139 2fbd
00000090: b4d1 1e3c fbe3 b5bc 5611 19be 8254 2c3e
000000a0: 2f9c 38be c1ea e23d 0505 f6be dbba 49be
000000b0: 60ae b0be f4d4 f5bd d312 50be 48de 023e
000000c0: 45c9 d4bc 9ece 503d 2f69 c2b9 baee eabd
000000d0: dfbb b83c 0aee 953d e2d1 f5bc 9393 8dbe
000000e0: ff9f 7dbe a690 1c3e 95b4 dfbc bd83 96bd
000000f0: 8adf 9e3d 05e1 113e ecd1 ebbe bc43 0d3e
00000100: 5490 77bf ebab 09bd c6f2 efbd a134 86bd
00000110: ef39 8abd c297 c7bd c0a3 483e 0356 7ebe
00000120: a249 d0be 66e7 d5be c9be 9fbe 0033 e53e
00000130: 7d19 46be dfd1 e8bd 8133 92bf 9557 f8bc
00000140: 8eb2 803e 3b19 28bf 4f42 ffbd 7751 0e3e
00000150: 0956 6b3d a146 67bc 9799 dc3e acfa 423e
00000160: 05b0 22bf 73dc 37bc c6e5 71bf d59d 213e
00000170: 1977 d03e 0d13 9b3e 2e74 a6bf 44f3 e1be
00000180: cdab 48be 7d13 853d c59e 2ebe e713 fabe
00000190: 729f 5c3e 6825 f73e 44f6 47bf 4587 29bf
000001a0: 872e a1bf 5187 47bf 5892 e4be abb6 91be
000001b0: 3bf2 06be a70b d73d a291 fc3d 3dd4 a1be
000001c0: bf69 1e3e 67d2 3bbf b4cb 8ebe 0b9d e8be
000001d0: 96a4 1cbe 4635 23bf 76ee 7ebf 1deb 5bbe
000001e0: a55b 7d3d 1261 d0bd b16c a9be bfa0 a83e
000001f0: a28a 42bd d9ab 0abe cff3 b23c b494 663e
00000200: c620 9e3d 2382 933d ba8b b1be 00a4 91be
00000210: 131a eabb 2ddb debc 29e9 b13d c200 f4bd
00000220: 13e9 dabd 93f8 9ebd e86d cabb c04c f23d
00000230: fdae 803e 73d0 44bd 0bd9 51bd 3f79 f7bc
00000240: f4d7 103d 95d0 24be e278 86bd 4f43 16bd
00000250: 2fe5 a93b 764e b2be 007a 70bc 3b28 79be
00000260: a488 f7bd 73de ebbc f567 f9bd e4a9 c53d
00000270: c430 07bd ba73 6d3e 3ab9 9c3e cb99 ce3d
00000280: d59f 7cbd 4565 693e 4c7f ecbd ea81 073e
00000290: 788f 033e 45e5 0c3e 96b9 183d 746d ad3d
000002a0: ed0b 843e 601a b83d e081 cc3b 7b55 e0bd
000002b0: f54d a4be 0909 503d 62e5 77be 710b d0bc
000002c0: 21c4 edbd b9d2 3cbd fab0 073c ea4b 573e
000002d0: 9d83 d6bd 078c 323e feac c5bc d688 1cbe
000002e0: c558 1d3e efd9 49bc 96f7 b7b7 edc0 2dbe
000002f0: 58d4 6d3d 8a97 023e bab6 ad3e da8a 313d
00000300: 2705 b5be a138 b7bd 3e8d fd3e 8629 103f
00000310: 11c8 5ebd 01a7 203e c251 59be 8bb3 0e3e
00000320: ed09 013e 46f3 0dbf 87db d1bd 6975 703e
00000330: 6843 19bf 4570 893d bcc8 0e3e 9cea 86ba
00000340: 8424 e3bc 9ddb 7dbf 5537 893e 8370 da3e
00000350: f7d8 be3b 9db4 023f 151d 233f 015f 0a3f
00000360: f36d 6fbf 86c7 e6bc 2c5e aebf 2d24 fcbd
00000370: 9afa 073f fdbc 8c3e ac45 3ebf 3260 e13d
00000380: 4c05 2cbe 176a 383e d7b9 cd3e ca87 b43d
00000390: 1e03 3dbe 1564 3fbd 3fd9 d4bf 71ce 71bf
000003a0: 74e8 6c3e 27f8 953e 398b fcbe ce61 603e
000003b0: 9664 243f d5e0 423e 49da 003f f97f 84be
000003c0: eed3 143f 4880 183d 2244 32bf 7e55 b33d
000003d0: 6494 233e a478 43bf 13e5 91bf 5947 863e
000003e0: 14d8 573e 883d 35be 0133 e83e 7d3e e83e
000003f0: c592 31be e3cd 58be 3c12 bcbe 8501 06be

mlp.2.bias f4 [64]
-0.1743528 -0.2507183 -0.118196644 -0.06797824 -0.2780287 -0.14489003 -0.07941448 -0.19267252
-0.29951784 0.29528216 0.10062602 -0.118234284 -0.22776242 -0.25641647 -0.34767294 -0.40631688
-0.24693695 -0.078074716 -0.17057687 -0.23962069 -0.35184792 -0.28728685 -0.33979425 -0.11153757
0.0944755 -0.21854301 0.11137763 -0.080695875 -0.15696214 -0.06672179 0.037878584 -0.13607398
0.091435894 0.33217695 -0.34440038 -0.21953084 -0.1142682 -0.11076493 -0.034807604 0.1163139
-0.2077294 0.10584203 -0.3278318 -0.036181863 0.31111735 -0.26108423 -0.07137934 0.10968644
-0.2587279 0.04829045 -0.42194366 -0.010953993 -0.15236509 -0.03824847 -0.048063748 -0.10437988
-0.21916997 0.03348572 -0.029531095 -0.4331619 -0.19055288 -0.1329193 -0.32075936 -0.29360998
00000000: 8a89 32be 265e 80be 1511 f2bd 2d38 8bbd
00000010: c759 8ebe 0d5e 14be 0fa4 a2bd f24b 45be
00000020: 675a 99be 392f 973e 0415 ce3d d124 f2bd
00000030: 8d3a 69be 0549 83be 3002 b2be c408 d0be
00000040: 0add 7cbe a3e5 9fbd b4ab 2ebe 205f 75be
00000050: 6925 b4be 4317 93be 83f9 adbe cf6d e4bd
00000060: 5f7c c13d bdc9 5fbe f419 e43d e143 a5bd
00000070: afba 20be 6fa5 88bd 9326 1b3d fa56 0bbe
00000080: be42 bb3d 1913 aa3e 3f55 b0be b1cc 60be
00000090: 7205 eabd b9d8 e2bd 6b92 0ebd fb35 ee3d
000000a0: 04b7 54be b5c3 d83d 92d9 a7be 6f33 14bd
000000b0: c64a 9f3e d5ac 85be 552f 92bd 49a3 e03d
000000c0: fc77 84be 35cc 453d 0009 d8be 6078 33bc
000000d0: 9805 1cbe 6daa 1cbd 7ede 44bd 1ec5 d5bd
000000e0: 186e 60be 5328 093d 32eb f1bc 66c7 ddbe
000000f0: 4b20 43be ff1b 08be 923a a4be 0c54 96be

mlp.4.weight f4 [64, 64]
-0.02596381 0.02706897 0.017025948 0.030962188 -0.037021946 -0.055350143 -0.002783608 -0.006320711
0.026071355 -0.035747465 -0.012260726 0.012334501 -0.031524207 -0.049059168 0.009804308 -0.03091206
0.057194676 0.009928023 -0.13396089 -0.038698006 -0.24814373 0.110859536 0.040040113 -0.023672216
0.027948448 -0.16800527 -0.04312412 0.052801065 -0.020565212 -0.041447066 0.009700389 0.093877986
0.018762901 -0.073431656 -0.040456984 0.029175607 -0.018567918 -0.00937345 -0.050561104 -0.05469396
-0.046332642 -0.057760566 0.02193095 0.035829693 -0.04923509 -0.013461417 0.12941924 -0.036797553
-0.16080227 0.037257213 0.03364001 0.041337848 0.0262023 0.09669679 -0.079227224 0.18393049
0.09969527 -0.006211475 -0.1715016 -0.05860098 -0.0069277305 0.0049026576 -0.017629126 0.032956623
0.21653807 -0.1572648 -0.6659719 -0.12987044 -0.40761352 0.104240775 -0.0029962035 0.09639312
0.17828226 0.1475749 0.27210417 0.061567698 0.05600671 0.3275958 -0.66635597 -0.23922445
-0.017219745 0.33178514 -0.01412545 0.20324494 -0.30647036 -0.27077764 0.4428474 0.062405854
-0.16650623 -0.15835814 -0.012195784 -0.5063012 0.052618556 -0.20666198 -0.22128919 0.10818641
0.17353524 0.15366396 0.26203123 0.12897465 -0.0545984 -0.6848334 -0.03186694 0.008537889
0.21366408 0.010742298 -0.26742247 0.12409728 -0.12255857 0.027568838 -0.33964247 -0.34078786
0.10122382 0.011711632 -0.27030185 0.302434 -1.5205772 -0.030121567 0.18189892 -0.023332836
0.36281428 0.056272835 0.3939606 -0.012224171 -0.016018776 0.29558828 -1.1496903 0.15408379
-0.086356975 0.040250953 -0.021898359 0.081983455 0.0021884665 -0.088860676 -0.05513325 -0.045911975
0.024677537 0.05787953 -0.0024239644 -0.11598864 0.115569755 -0.10618522 -0.049659498 0.07071152
0.06845282 -0.09299905 -0.055093117 -0.038966727 -0.047166333 -0.027837517 -0.014318412 0.042690877
0.008292338 -0.02586321 0.1007085 -0.016381668 0.050796058 0.03642761 0.051692322 0.0327328
-0.067349225 0.0076695364 0.025744256 0.020999221 0.08787233 0.0012535527 0.10558862 -0.00321307
-0.045460895 -0.007584205 0.04620617 -0.015893957 -0.04008485 0.05286233 -0.04265209 -0.01980753
-0.1221048 0.04095043 0.017448543 0.03483253 0.04768614 -0.01965139 0.06667419 0.028686717
-0.09685755 0.030046873 0.09020221 0.056338135 0.035873536 0.034455746 -0.093849175 -0.05933766
-0.09140311 0.0046317335 -0.022573933 -0.027237438 0.0363233 0.002623448 -0.016332837 0.026124684
-0.0054922067 -0.055576503 0.049245663 -0.0054414193 0.082896285 -0.059809905 -0.018223448 -0.045163903
-0.06852251 -0.035157677 0.034564335 -0.03197477 -0.044738524 0.016386917 0.084260225 0.035330992
-0.019212171 -0.08146626 -0.02124386 -0.054501977 0.03963011 0.10383342 0.1291099 -0.0592643
0.08568187 0.019820908 0.04017414 -0.025392931 -0.04636724 -0.012141958 -0.039901245 0.030012462
-0.07920084 0.010500342 0.006509517 -0.02948445 -0.053501334 -0.00532115 0.015322399 0.034001358
-0.24584429 -0.12668554 0.08396986 0.10118195 -0.03759763 0.0075700874 -0.020387104 0.067629494
0.034675196 -0.030389288 0.11067611 -0.119284764 0.06683045 0.06422897 0.043611377 0.045281634
00000000: 0eb2 d4bc bfbf dd3c 007a 8b3c 6aa4 fd3c
00000010: 53a4 17bd d5b6 62bd 316d 36bb f81d cfbb
00000020: 9893 d53c ef6b 12bd 36e1 48bc a616 4a3c
00000030: 871f 01bd 44f2 48bd 40a2 203c 4a3b fdbc
00000040: f744 6a3d 26a9 223c 0b2d 09be cd81 1ebd
00000050: 6419 7ebe 530a e33d 1a01 243d 3cec c1bc
00000060: 25f4 e43c 9309 2cbe eba2 30bd ee45 583d
00000070: 6078 a8bc 66c4 29bd 61ee 1e3c 1a43 c03d
00000080: a8b4 993c 5663 96bd 39b6 25bd af01 ef3c
00000090: bf1b 98bc 1993 19bc 2919 4fbd c606 60bd
000000a0: 4cc7 3dbd 5896 6cbd 89a8 b33c 28c2 123d
000000b0: bcaa 49bd 468d 5cbc 7a86 043e 08b9 16bd
000000c0: 5aa9 24be 059b 183d 1bca 093d e051 293d
000000d0: 35a6 d63c f708 c63d e241 a2bd 4658 3c3e
000000e0: 092d cc3d a189 cbbb 1e9e 2fbe 9507 70bd
000000f0: 0402 e3bb 79a6 a03b f56a 90bc 86fd 063d
00000100: 28bc 5d3e 060a 21be 227d 2abf c2fc 04be
00000110: b8b2 d0be 307c d53d f45b 44bb c269 c53d
00000120: a08f 363e e01d 173e 3d51 8b3e 692e 7c3d
00000130: 4b67 653d a3ba a73e 4e96 2abf 41f7 74be
00000140: 6c10 8dbc bedf a93e 6e6e 67bc 711f 503e
00000150: afe9 9cbe 5ea3 8abe e5bc e23e 489d 7f3d
00000160: 9c80 2abe a328 22be d3d0 47bc f59c 01bf
00000170: 8e86 573d 339f 53be a299 62be d690 dd3d
00000180: 39b3 313e 165a 1d3e f528 863e ee11 043e
00000190: 92a2 5fbd 3e51 2fbf e986 02bd 81e2 0b3c
000001a0: c2ca 5a3e 7700 303c 99eb 88be b726 fe3d
000001b0: fdff fabd 0bd8 e13c 9ee5 adbe bf7b aebe
000001c0: 6f4e cf3d 25e2 3f3c 0165 8abe a1d8 9a3e
000001d0: 46a2 c2bf 81c1 f6bc b643 3a3e 8124 bfbc
000001e0: cbc2 b93e 587e 663d 34b5 c93e e447 48bc
000001f0: cf39 83bc 5957 973e 0d29 93bf 24c8 1d3e
00000200: eddb b0bd 2fde 243d 3064 b3bc f1e6 a73d
00000210: 606c 0f3b 96fc b5bd 67d3 61bd 320e 3cbd
00000220: 8c28 ca3c 1613 6d3d 60db 1ebb 748b edbd
00000230: d6af ec3d a377 d9bd c267 4bbd 34d1 903d
00000240: fe30 8c3d 4976 bebd 52a9 61bd 939b 1fbd
00000250: 7c31 41bd 810b e4bc c697 6abc a1dc 2e3d
00000260: 96dc 073c 15df d3bc 4240 ce3d d932 86bc
00000270: 870f 503d 1e35 153d 54bb 533d d412 063d
00000280: 64ee 89bd bc50 fb3b 9ee5 d23c 8f06 ac3c
00000290: 68f6 b33d 404e a43a d93e d83d 5f92 52bb
000002a0: 3435 3abd ec84 f8bb ae42 3d3d 0b34 82bc
000002b0: 0330 24bd 2c86 583d f5b3 2ebd 6743 a2bc
000002c0: 1512 fabd a3bb 273d 3ff0 8e3c 8eac 0e3d
000002d0: 8b52 433d f4fb a0bc 7a8c 883d 6800 eb3c
000002e0: 405d c6bd dc24 f63c f0bb b83d d1c2 663d
000002f0: 21f0 123d 7821 0d3d ff33 c0bd 0c0c 73bd
00000300: 8e31 bbbd ccc5 973b f8ec b8bc 0c21 dfbc
00000310: bec7 143d 27ee 2b3b 71cc 85bc 6f03 d63c
00000320: f8f7 b3bb 30a4 63bd d2b5 493d ef4d b2bb
00000330: 87c5 a93d 3bfb 74bd 5749 95bc c9fd 38bd
00000340: 8855 8cbd 7f01 10bd 5593 0d3d faf7 02bd
00000350: be3f 37bd db3d 863c a090 ac3d 3bb7 103d
00000360: d862 9dbc c8d7 a6bd 9a07 aebc 773d 5fbd
00000370: 2f53 223d 9ea6 d43d 6335 043e 1fbf 72bd
00000380: fa79 af3d 755f a23c a48d 243d d604 d0bc
00000390: 93eb 3dbd 10ef 46bc 7d6f 23bd b2dc f53c
000003a0: 0d34 a2bd a009 2c3c c94d d53b 6089 f1bc
000003b0: 3724 5bbd 0b5d aebb cd0a 7b3c 0245 0b3d
000003c0: 9bbe 7bbe dbb9 01be 64f8 ab3d 7b38 cf3d
000003d0: f9ff 19bd 7f0e f83b db02 a7bc 5581 8a3d
000003e0: 9407 0e3d f5f2 f8bc 28aa e23d 924b f4bd
000003f0: 67de 883d 7a8a 833d d8a1 323d 3c79 393d

mlp.4.bias f4 [64]
-0.07759059 0.019607512 -0.026845045 0.016201027 0.0047990126 0.02204662 0.0011828365 -0.12880093
-0.050245482 -0.10736402 -0.013670874 -0.016180513 -0.023105016 0.00074143143 -0.06738276 -0.21795009
-0.3241718 -0.28713566 -0.14787115 -0.13502537 -0.1953912 -0.0957822 -0.3289009 -0.5049901
0.06078879 -0.15251376 -0.17844088 -0.31600308 -0.2949424 -0.4065177 -0.24420054 -0.082236
-0.1874843 -0.034831915 -0.16747253 -0.43203035 -0.14275207 0.038517337 -0.5589963 -0.029719608
-0.40126365 -0.043832615 -0.22861798 -0.103760555 -0.22743528 -0.0030962408 -0.01216116 -0.199309
-0.13016662 -0.5697788 -0.20809427 -0.0743399 0.03204612 -0.33376738 -0.1432172 -0.05188906
-0.25205997 -0.21785715 -0.08489471 -0.5937014 -0.5005022 -0.5054602 -0.33507097 -0.036378384
00000000: d1e7 9ebd ef9f a03c 24ea dbbc 04b8 843c
00000010: 0941 9d3b 1d9b b43c 6809 9b3a 64e4 03be
00000020: 35ce 4dbd abe1 dbbd cdfb 5fbc ff8c 84bc
00000030: bb46 bdbc 9f5c 423a f9ff 89bd 4f2e 5fbe
00000040: d9f9 a5be 7203 93be 896b 17be 1744 0abe
00000050: a114 48be 7529 c4bd b365 a8be 0847 01bf
00000060: abfd 783d 912c 1cbe 35b9 36be 28cb a1be
00000070: b102 97be 1723 d0be b50f 7abe 596b a8bd
00000080: e2fb 3fbe e9ab 0ebd eb7d 2bbe 1533 ddbe
00000090: 992d 12be 5bc4 1d3d 621a 0fbf 8976 f3bc
000000a0: 6e72 cdbe d489 33bd d51a 6abe 6a80 d4bd
000000b0: cbe4 68be 4dea 4abb 9a3f 47bc a917 4cbe
000000c0: 664a 05be 06dd 11bf aa16 55be 843f 98bd
000000d0: cb42 033d 8fe3 aabe 88a7 12be 9f89 54bd
000000e0: 010e 81be f215 5fbe 47dd adbd d1fc 17bf
000000f0: ea20 00bf d765 01bf 6c8e abbe 8001 15bd

mlp.6.weight f4 [2, 64]
0.0021160992 -0.14034441 0.0019038748 0.0018586067 0.00036931204 -0.008033906 0.0008938439 -0.10366497
0.001771129 -0.021300258 -0.0009484211 -0.00078070385 -0.002064095 -0.07838961 0.0016069951 -0.0024444791
-0.11736244 0.096466 -0.030698704 0.007862064 0.006471341 0.0023011987 0.060313106 0.1662945
-0.32536855 0.16260935 0.038144726 0.28288585 -0.05167637 -0.021427635 -0.22512354 0.00445238
-0.0016090425 -0.0796995 0.0024658747 -0.095134564 -0.077177696 0.0009402153 -0.05303428 -0.0010020367
-0.078620695 0.0026878363 -0.0032247617 0.3035938 -0.19650324 0.0010031702 0.0056681614 0.034418046
0.0051321452 -0.050361753 0.20490229 -0.2405854 0.22473365 -0.0005129056 0.1621702 0.0029183885
0.019080741 0.19285487 0.0016794032 0.02012679 0.037182655 -0.22957432 0.049057238 0.0043312735
-0.002283875 -0.0022128157 0.002502348 0.0023604278 -0.0014173322 -0.12317219 -0.0077253985 -0.008591596
-0.0032706116 -0.10673319 0.00092457916 -0.0039742636 -0.0067914375 -0.09495961 0.003985706 0.19315651
-0.02878199 -0.0057935347 0.03297477 0.0017970692 0.0057520247 -0.0025808932 -0.03533653 -0.10096399
0.0008754228 0.042146966 -0.10840933 0.16556074 0.0075076916 0.25312233 0.05653763 -0.0065259067
-0.00854424 -0.09141688 -0.002614216 0.18418944 0.039770704 0.0019104532 -0.07380638 -0.0038776658
-0.055260457 0.0008245724 0.000106319436 0.015104215 -0.0017927418 -0.0032752808 -0.0043498296 0.005882747
-0.005044355 -0.23544098 -0.007352461 0.12549755 -0.16597007 0.005700998 -0.31291237 -0.0019615234
-0.091752514 0.16311663 0.18605354 0.23997954 0.08842546 -0.15694596 -0.2646599 0.0032096
00000000: 41ae 0a3b 72b6 0fbe 708b f93a 7e9c f33a
00000010: 39a0 c139 a5a0 03bc d950 6a3a 4d4e d4bd
00000020: 3a25 e83a e17d aebc 769f 78ba 26a8 4cba
00000030: c545 07bb bb8a a0bd cfa1 d23a 8e33 20bb
00000040: b85b f0bd f78f c53d d97b fbbc e3cf 003c
00000050: 8b0d d43b b5cf 163b e00a 773d 1b49 2a3e
00000060: b596 a6be 1183 263e a53d 1c3d 6ad6 903e
00000070: 9aaa 53bd 0289 afbc c986 66be 45e5 913b
00000080: 82e6 d2ba 7e39 a3bd 839a 213b e9d5 c2bd
00000090: 570f 9ebd c878 763a 793a 59bd c656 83ba
000000a0: e303 a1bd 6926 303b 8656 53bb a670 9b3e
000000b0: 2538 49be ce7c 833a fcbb b93b f0f9 0c3d
000000c0: 8e2b a83b 2048 4ebd e8d1 513e 055c 76be
000000d0: 9420 663e 8374 06ba f20f 263e 6f42 3f3b
000000e0: 374f 9c3c bf7b 453e 6c1f dc3a f0e0 a43c
000000f0: d74c 183d 8815 6bbe 3ef0 483d 5bed 8d3b
00000100: 10ad 15bb e304 11bb 6ffe 233b 68b1 1a3b
00000110: c7c5 b9ba b341 fcbd 5725 fdbb c4c3 0cbc
00000120: c257 56bb ee96 dabd 755f 723a 8a3a 82bb
00000130: b58a debb 2f7a c2bd 869a 823b d2ca 453e
00000140: 35c8 ebbc b1d7 bdbb 8d10 073d a38b eb3a
00000150: 7b7b bc3b 3424 29bb 0abd 10bd 35c6 cebd
00000160: a17c 653a 4ca2 2c3d b605 debd c188 293e
00000170: 1503 f63b 4099 813e 0094 673d 46d7 d5bb
00000180: 24fd 0bbc c638 bbbd 4453 2bbb 289c 3c3e
00000190: 9be6 223d 2c68 fa3a cd27 97bd 7020 7ebb
000001a0: ca58 62bd 1e28 583a d0f7 de38 ab77 773c
000001b0: 6ffa eaba 18a6 56bb 0489 8ebb 0fc4 c03b
000001c0: 1e4b a5bb 7117 71be eaec f0bb 6e82 003e
000001d0: 0ff4 29be 70cf ba3b 0d36 a0be e78c 00bb
000001e0: bee8 bbbd 0c08 273e d284 3e3e 32bd 753e
000001f0: 6818 b53d 71b6 20be 8181 87be 2758 523b

mlp.6.bias f4 [2]
-0.09271827 0.06557538
00000000: 14e3 bdbd 634c 863d
