demo_FM_model_1000.pth (torch, 46497 bytes, 8 tensors)

mlp.0.weight f4 [64, 34]
0	0xbec38f82	-0.38195425
1	0xbea6460c	-0.32475317
2	0x3f233ebf	0.6376762
3	0x3f567ba0	0.83782387
4	0x3f514afd	0.8175505
5	0x3f6bb629	0.9207483
6	0x3f38bd22	0.72163594
7	0x3f575fbc	0.84130454
8	0x3f53dfdd	0.82763463
9	0x3f205f04	0.6264498
10	0x3f3d0d5e	0.7384852
11	0x3f440395	0.76567966
12	0x3f576ab6	0.841472
13	0x3f58da70	0.8470831
14	0x3f6bde96	0.92136514
15	0x3f5f6bdb	0.8727395
16	0x3f3b35ed	0.7312916
17	0x3f36735d	0.7126978
18	0xbededd26	-0.43528098
19	0xbe5f2b03	-0.21793751
20	0xbac921d2	-0.0015345162
21	0xbe0dca82	-0.13846782
22	0x3c3ba7d7	0.01145359
23	0xbd4ede9e	-0.050505273
24	0xbd570a9d	-0.052500356
25	0x3d6b96d1	0.057516877
26	0xbda056d5	-0.07829062
27	0xbe6a188b	-0.22860925
28	0x3dc2b1de	0.09506582
29	0xbe09cb16	-0.13456377
30	0xbe588095	-0.211428
31	0x3d1d103b	0.038345557
32	0xbcc85f96	-0.024459641
33	0xbe5de1bb	-0.2166814
34	0xbf096690	-0.5367212
35	0xbd897787	-0.06712251
36	0xbe2e5279	-0.17023648
37	0xbe8dcec7	-0.2769682
38	0xbec3886a	-0.38190013
39	0xbe002e5b	-0.12517683
40	0xbecaacd5	-0.39584985
41	0xbe8d92ae	-0.2765097
42	0xbec920ba	-0.3928278
43	0xbed4f29e	-0.41591352
44	0xbe9efdac	-0.3105291
45	0xbe24654d	-0.16054268
46	0xbec14505	-0.3774797
47	0xbe81ae18	-0.25328135
48	0xbe0c2e34	-0.136895
49	0xbe833338	-0.25625014
50	0xbe9c6d3d	-0.30552092
51	0xbe8e0610	-0.27739
52	0x3df674b5	0.12033979
53	0xbc88ba8b	-0.016690513
54	0xbd59b236	-0.05314847
55	0xbd6a5e15	-0.05721863
56	0x3df1261e	0.117748484
57	0xbe09a7f1	-0.13442971
58	0xbd659eaf	-0.056059536
59	0xbdc84333	-0.09778442
60	0x3e16740e	0.14692709
61	0xbe10a437	-0.14125143
62	0x3e07ed2a	0.13274065
63	0x3d830000	0.063964844
64	0xbc62616f	-0.013817175
65	0x3da50494	0.08057514
66	0xbdda743f	-0.106667034
67	0xbd5cd8ef	-0.05391782
68	0xbe84562e	-0.25847
69	0xbfa0a2b2	-1.2549651
70	0x3f42a010	0.76025486
71	0x3f08f955	0.5350545
72	0x3f145be8	0.5795274
73	0x3f2366b3	0.6382858
74	0x3f44c399	0.7686096
75	0x3f5bf1e9	0.85916
76	0x3f4442b1	0.76664263
77	0x3f5a2fc7	0.8522915
78	0x3f3c7ea0	0.73630714
79	0x3f5cdc47	0.86273617
80	0x3f0957db	0.5364968
81	0x3f225c5c	0.6342218
82	0x3f0eef51	0.5583392
83	0x3f13ef08	0.5778661
84	0x3f4ec1c4	0.8076441
85	0x3f3a28c0	0.7271843
86	0xbe35386d	-0.17697306
87	0xbd452791	-0.048133437
88	0xbd8ef610	-0.069805264
89	0x3d10a89d	0.035317052
90	0x3e011e11	0.12609126
91	0x3d88f132	0.06686629
92	0x3dde2e90	0.10848725
93	0x3e061655	0.13094456
94	0x3dad906d	0.08474813
95	0xbc9a5d0f	-0.018843202
96	0xbc8998e0	-0.01679653
97	0xbd600e53	-0.05470116
98	0xbd82b11a	-0.06381436
99	0xbc886c05	-0.01665307
100	0x3d321a85	0.043482322
101	0x3cbe1617	0.023203893
102	0xbeeb8411	-0.45999196
103	0xbe379162	-0.17926553
104	0x3f2f9ec4	0.6860163
105	0x3f5b026d	0.85550576
106	0x3f4ef58e	0.80843437
107	0x3f6783d3	0.9043552
108	0x3f383852	0.7196094
109	0x3f713559	0.9422203
110	0x3f2b133d	0.6682623
111	0x3f298de8	0.66232157
112	0x3f662a36	0.8990816
113	0x3f7539d3	0.9579136
114	0x3f5ff521	0.8748341
115	0x3f24b063	0.64331645
116	0x3f273033	0.6530792
117	0x3f251f2c	0.6450069
118	0x3f48c57c	0.7842634
119	0x3f68e752	0.90977967
120	0xbee79ece	-0.45238346
121	0xbe3f2d33	-0.18669586
122	0xbe7a32b2	-0.24433401
123	0xbd0b8ce4	-0.03406991
124	0x3d3f57f8	0.046714753
125	0xbd8a2c8d	-0.06746779
126	0xbe1448fe	-0.1448097
127	0xbe33e747	-0.17568694
128	0xbcbf196a	-0.023327548
129	0x3d84f281	0.064915664
130	0xbc8a1e3d	-0.016860122
131	0xbdacb4db	-0.08432933
132	0x3d908ce0	0.0705812
133	0xbe537688	-0.20650685
134	0x3d381bc6	0.04494836
135	0xbdb07a82	-0.086171165
136	0xbf9eda6f	-1.2410411
137	0xbec581c3	-0.38575563
138	0xbec21fbe	-0.37914842
139	0xbecba939	-0.39777544
140	0xbe830a14	-0.25593626
141	0xbec757c6	-0.38934153
142	0xbef9f7ae	-0.48821777
143	0xbea51775	-0.3224446
144	0xbe8e6452	-0.27810913
145	0xbf11943c	-0.5686681
146	0xbedc088c	-0.4297527
147	0xbee44d9e	-0.44590467
148	0xbf06bef2	-0.5263511
149	0xbf0b631d	-0.5444811
150	0xbe7621be	-0.24036309
151	0xbe805ae5	-0.25069347
152	0xbea63cd9	-0.32468298
153	0xbf0f0ccd	-0.5587891
154	0x3e688a06	0.22708902
155	0x3e497eab	0.19677226
156	0x39e3e989	0.0004347081
157	0x3d84aae4	0.06477907
158	0xbcb91d58	-0.022597
159	0x3dc4e9d2	0.0961491
160	0xbd71b883	-0.059013855
161	0xbcd4dc14	-0.025983848
162	0xbdfbbab9	-0.12291474
163	0xbd20f088	-0.03929189
164	0x3d109efe	0.035307877
165	0x3da1fbc9	0.07909352
166	0xbddecd5e	-0.108790144
167	0x3dc5c720	0.09657121
168	0xbd15db5b	-0.036586147
169	0xbde48531	-0.11158217
170	0x3f84871d	1.0353733
171	0xbee62861	-0.44952682
172	0x3f06085f	0.52356523
173	0x3ed2dd62	0.41184527
174	0x3f09a748	0.53770876
175	0x3e788660	0.2427001
176	0x3e9ccf20	0.30626774
177	0x3e7ce858	0.24698007
178	0x3e9d1036	0.3067643
179	0x3ef879c6	0.48530406
180	0x3ea433a6	0.32070655
181	0x3f06ee3f	0.52707285
182	0x3ea1177b	0.31463227
183	0x3ef388b4	0.47565234
184	0x3ea3e3ac	0.32009637
185	0x3ea852cf	0.32875678
186	0x3ef8f547	0.48624632
187	0x3e94ee05	0.29087844
188	0xbeaef3b6	-0.34170312
189	0xbdd078fb	-0.10179325
190	0xbdd21f23	-0.10259845
191	0x3cf7daed	0.03025576
192	0x3cf238ca	0.029568095
193	0xbd4e1c3b	-0.05031989
194	0xbd6eb341	-0.05827642
195	0x37ea4f00	2.7931761e-05
196	0xbd821d45	-0.06353239
197	0x3e126853	0.14297609
198	0x3b395772	0.0028280881
199	0xbd6f7fde	-0.058471553
200	0xbd26079f	-0.04053461
201	0xbde1edb0	-0.110316634
202	0xbd7bd1f5	-0.061479528
203	0xbe2b4a88	-0.1672765
204	0xbf3fca74	-0.74918294
205	0x3ea63619	0.32463148
206	0xbf27828e	-0.65433586
207	0xbf3b35ca	-0.7312895
208	0xbef8ad5c	-0.48569763
209	0xbf4598be	-0.7718619
210	0xbf104c19	-0.56366116
211	0xbef6c370	-0.48195982
212	0xbf3f6edf	-0.7477855
213	0xbf2e211e	-0.6801928
214	0xbf27d6f5	-0.65562373
215	0xbf020094	-0.5078213
216	0xbf035030	-0.5129423
217	0xbf39871c	-0.72471786
218	0xbf100c81	-0.5626908
219	0xbf423dd8	-0.75875616
220	0xbf2a0c77	-0.6642527
221	0xbf2387df	-0.638792
222	0x3eb7794f	0.3583474
223	0x3c6f3bf8	0.0146017
224	0x3e3c0115	0.18359788
225	0xbd2f50fa	-0.042801835
226	0x3e300f87	0.17193423
227	0x3e1302ef	0.14356588
228	0x3e24dcf2	0.16099909
229	0xbd9932c3	-0.07480385
230	0x3e20b585	0.15694244
231	0x3d3e849b	0.04651318
232	0xbc8f968c	-0.017527841
233	0x3cbf542a	0.023355562
234	0xbe1d2ebc	-0.15349859
235	0xbd460dc0	-0.048352957
236	0x3df086d3	0.11744466
237	0xbdd71bc8	-0.10503346
238	0xbef437f6	-0.47698945
239	0x3d6b370f	0.057425555
240	0xbf5b12f6	-0.8557581
241	0xbf4c4be8	-0.79803324
242	0xbf6cd6ec	-0.92515445
243	0xbf438fc6	-0.76391256
244	0xbf2c6c3e	-0.67352664
245	0xbf27aa6a	-0.65494406
246	0xbf3d4683	-0.7393572
247	0xbf77cffe	-0.96801746
248	0xbf65403f	-0.89551157
249	0xbf7317aa	-0.94957983
250	0xbf7536b8	-0.9578662
251	0xbf3f34db	-0.74690026
252	0xbf5e5ccd	-0.8686035
253	0xbf41647d	-0.7554396
254	0xbf538654	-0.82626843
255	0xbf6327db	-0.8873269

mlp.0.bias f4 [64]
0	0xbd0efbd6	-0.03490814
1	0xbbe49575	-0.0069758245
2	0xbdd1149e	-0.102090105
3	0xbe42da35	-0.19028552
4	0xbde6f490	-0.11277115
5	0x3de73d13	0.11290946
6	0xbb1fd64b	-0.0024389203
7	0x3db05399	0.08609695
8	0x3cc2d412	0.023782764
9	0xbcaf6665	-0.02141113
10	0x3d8a8d39	0.06765217
11	0xbe09be97	-0.1345161
12	0xbd4bbe46	-0.049742006
13	0x3e0ddfe0	0.13854933
14	0x3d4eeae9	0.050516997
15	0xbcf6430f	-0.030061273
16	0xbe4a4570	-0.19753051
17	0xbe05f68c	-0.13082331
18	0x3dabd59e	0.083903536
19	0x3c139170	0.009006843
20	0xbe3b3ad3	-0.18284158
21	0x3df52d96	0.119715855
22	0x3e02b2f0	0.12763572
23	0xbdb32e06	-0.08749013
24	0x3d0050b2	0.031326957
25	0xbdb07ea3	-0.08617904
26	0xbd479109	-0.0487223
27	0xbe294606	-0.16530618
28	0xbd346a86	-0.0440469
29	0x3e163416	0.14668307
30	0x3da8e154	0.08246103
31	0x3d281d7c	0.041043743
32	0x3dbbe46c	0.091744274
33	0xbe50f45f	-0.2040572
34	0xbc6f63ea	-0.014611224
35	0xbd1dffd9	-0.038574073
36	0xbdd2f075	-0.1029977
37	0x3de68b31	0.112570174
38	0xbdaa925a	-0.083286956
39	0x3e0f9361	0.14021064
40	0xbbadea4a	-0.0053074704
41	0xbddff05e	-0.10934518
42	0xbe16114d	-0.14655037
43	0xbde35947	-0.11101013
44	0xbd87b5fe	-0.06626509
45	0x3d1d2223	0.038362633
46	0xbe260c01	-0.16215517
47	0x3e194723	0.14968543
48	0xbd8beab7	-0.06831878
49	0x3d81e883	0.06343176
50	0xbe35e59e	-0.17763373
51	0x3d957d88	0.07299334
52	0xbe3df618	-0.18550909
53	0x3d942efe	0.072355255
54	0xbd30ccf4	-0.04316421
55	0x3daadb6c	0.08342633
56	0x3d97958d	0.074015714
57	0x3e57daa8	0.21079504
58	0xbe2c6e31	-0.1683891
59	0x3d88ae30	0.06673849
60	0x3d3ba670	0.045813024
61	0xbd991046	-0.07473807
62	0x3e02adb1	0.1276157
63	0xbe371ca8	-0.17882025

mlp.2.weight f4 [64, 64]
0	0x3ee26436	0.4421708
1	0xbc748497	-0.01492419
2	0x3e92098b	0.28522906
3	0x3f0757d5	0.52868396
4	0x3de29bcf	0.110648744
5	0x3e524eb4	0.20537835
6	0xbe976580	-0.29569626
7	0xbedc33a4	-0.4300815
8	0x3e9fb558	0.31193042
9	0x3e7e4518	0.24831045
10	0x3e78b170	0.24286437
11	0xbf555d27	-0.83345264
12	0xbe88e52e	-0.2673735
13	0xbe572601	-0.21010591
14	0x3e565b5b	0.20933287
15	0xbf53e699	-0.8277374
16	0x3ee50ffd	0.4473876
17	0x3e8d0fa2	0.2755099
18	0x3df52679	0.11970229
19	0x3e2f1768	0.17098773
20	0x3da76068	0.08172685
21	0x3f362d14	0.71162534
22	0xbe923631	-0.2855697
23	0xbf2323a3	-0.6372625
24	0x3d13388c	0.0359426
25	0x3e915251	0.28383115
26	0x3f4ae0b2	0.7924911
27	0x3ece6362	0.40310198
28	0xbf897c91	-1.074114
29	0xbd29e686	-0.04147961
30	0xbe2462e7	-0.16053353
31	0x3c35f311	0.011105315
32	0x3ecbac1c	0.39779747
33	0x3e6b2dd2	0.22966698
34	0x3dd59778	0.10429281
35	0x3f25b627	0.6473107
36	0x3e6855b4	0.22688943
37	0xbc27f4f4	-0.0102512725
38	0x3eb620fa	0.35572034
39	0xbfbe5071	-1.4868299
40	0x3ebe08f0	0.37116194
41	0x3e9084d0	0.28226328
42	0x3e553cda	0.20823994
43	0x3f105ad0	0.5638857
44	0x3ede0e5b	0.43370327
45	0x3f3b97e7	0.7327866
46	0x3e2ba41d	0.16761823
47	0xbd1531da	-0.036424495
48	0x3e9be16a	0.30445415
49	0xbf1cf80e	-0.61316
50	0x3ed0a128	0.40747952
51	0x3e352970	0.17691588
52	0xbd171653	-0.036886524
53	0xbf3af0b1	-0.73023516
54	0x3f282d84	0.6569445
55	0xbf80fed7	-1.0077771
56	0x3ec7d13a	0.39026815
57	0xbecf2c9d	-0.40463725
58	0x3f57d5be	0.8431052
59	0xbebaf5b3	-0.3651558
60	0x3f197f44	0.59959817
61	0x3cd92e82	0.026511434
62	0xbfd3aa72	-1.6536391
63	0x3f33b2d5	0.7019475
64	0x3dcda6ba	0.10041566
65	0xbea528b4	-0.32257617
66	0xbf3f5844	-0.7474406
67	0x3c59c1a2	0.013290795
68	0xbf244085	-0.6416095
69	0xbf1905d6	-0.5977453
70	0xbe9fcb09	-0.3120959
71	0xbf07ae57	-0.53000396
72	0xbf0d39ca	-0.55166304
73	0xbe988254	-0.29786932
74	0xbe445ede	-0.19176814
75	0xbefbab78	-0.49154258
76	0xbd9eba69	-0.07750399
77	0xbebb20ff	-0.36548612
78	0xbef5ce44	-0.4800893
79	0xbeb7b5e7	-0.35880968
80	0xbcb074fa	-0.021540154
81	0xbf4b8c35	-0.79510814
82	0xbdc34e13	-0.09536376
83	0x3ea078f6	0.31342286
84	0xbebf9f4e	-0.37426227
85	0xbe90a452	-0.28250366
86	0xbea50156	-0.32227582
87	0xbeac195b	-0.33613095
88	0x3d3d6caa	0.04624621
89	0xbea452ed	-0.32094517
90	0xbe768855	-0.24075444
91	0xbd9ae8c6	-0.07563929
92	0xbf767d85	-0.9628528
93	0xbf44efa4	-0.7692816
94	0xbe5572ed	-0.20844622
95	0x3e7ac462	0.24488977
96	0xbcc6ed8b	-0.024283191
97	0xbe2a01cb	-0.16602246
98	0xbdc35977	-0.095385484
99	0x3d187e68	0.037229925
100	0x3e021823	0.1270452
101	0xbe8e2cfe	-0.277687
102	0x3e8c83c2	0.27444273
103	0xbf15023c	-0.58206534
104	0xbead5f07	-0.33861563
105	0x3dc31dfe	0.09527205
106	0xbd19cf7a	-0.03755138
107	0x3d077770	0.03307289
108	0x3e163dfb	0.14672081
109	0x3dede0be	0.11615132
110	0x3d582a5c	0.052774772
111	0xbf0ba105	-0.5454257
112	0x3e07c093	0.13257055
113	0xbe5381b9	-0.20654954
114	0x3e0fc1a6	0.14038715
115	0x3e10f25b	0.14154951
116	0x3e2db0d2	0.16961983
117	0xbef4bafe	-0.47798914
118	0xbe926bba	-0.28597814
119	0xbe943a04	-0.28950512
120	0x3d7e86bd	0.062140215
121	0xbe110dc9	-0.14165415
122	0xbe3d7d2f	-0.18504785
123	0xbea0d331	-0.31411126
124	0x3c18f875	0.0093365805
125	0xbe094104	-0.13403708
126	0xbed49fc7	-0.4152815
127	0x3e1a127f	0.15046118
128	0xbd378156	-0.04480108
129	0x3dd152a0	0.102208376
130	0xbe3e0200	-0.1855545
131	0x3e553745	0.20821865
132	0x3dbb9673	0.09159555
133	0xbdb5633d	-0.08856819
134	0x3dfc02d3	0.12305226
135	0x3d4f6f55	0.050643284
136	0xbdd79339	-0.10526127
137	0x3dc0e620	0.09418893
138	0x3e0b8f1e	0.13628814
139	0x3c77ede4	0.015132401
140	0x3ce6f6cc	0.028193854
141	0x3cb246af	0.02176222
142	0x3dbd48eb	0.092424236
143	0xbd9933d9	-0.07480592
144	0x3d926890	0.0714885
145	0x3c937cff	0.018003939
146	0x3d817a1b	0.06322118
147	0x3da47300	0.08029747
148	0xbd739eb3	-0.05947752
149	0xbaf0c256	-0.0018368463
150	0xbde3b975	-0.111193575
151	0xbcc77caf	-0.024351446
152	0x38a7d832	8.00345e-05
153	0xbd4e8707	-0.05042174
154	0xbd651bb1	-0.05593461
155	0xbe040048	-0.12890732
156	0x3d273ffc	0.040832505
157	0x3d1db046	0.038498186
158	0xbd19d51e	-0.03755676
159	0xbdd8a616	-0.105785534
160	0xbd93772f	-0.07200467
161	0x3e01dece	0.1268265
162	0xbd169511	-0.036763255
163	0x3d159644	0.036520258
164	0xbcad03f0	-0.021120042
165	0x3dcc3190	0.09970391
166	0x3cf274d4	0.029596724
167	0x3db3dd08	0.08782393
168	0xbcb98af4	-0.022649266
169	0xbe2de012	-0.16980007
170	0xbc270023	-0.010192904
171	0xbdcf21e7	-0.10113888
172	0x3d0e9c66	0.034817122
173	0xbe48327f	-0.19550513
174	0x3c3d6de1	0.011561842
175	0xbd2f2ca3	-0.04276718
176	0xbd81fa9f	-0.0634663
177	0xbc72b380	-0.014813304
178	0xbded4883	-0.11586096
179	0xbd9cb798	-0.07652205
180	0x3e06e368	0.13172686
181	0xbdd5a586	-0.10431962
182	0x3dd1609f	0.10223507
183	0x3d55d7b9	0.052207682
184	0xbe1abf50	-0.15112042
185	0x3d86eb67	0.06587868
186	0x3c3a0913	0.0113547025
187	0xbdafb7f0	-0.08580005
188	0x3e4e09e9	0.20120968
189	0xbd89ad3d	-0.06722496
190	0xbdfdaf09	-0.12386901
191	0x3a0e5f8a	0.00054311065
192	0x3eae6c39	0.34066942
193	0xbeace2b6	-0.33766717
194	0xbd279df9	-0.04092214
195	0x3ecaf69c	0.39641273
196	0xbf3c28ae	-0.7349957
197	0x3ebc3e2b	0.3676618
198	0xbf684ee1	-0.9074536
199	0xbf6781dc	-0.90432525
200	0x3eb95813	0.36200008
201	0xbea52f3e	-0.32262605
202	0xbe1d7db5	-0.15379985
203	0xbe36a6d4	-0.17837077
204	0xbc41a90e	-0.011820091
205	0xbeef571c	-0.46746147
206	0x3ec40e86	0.3829233
207	0xbe400d35	-0.18755038
208	0xbe141d5d	-0.14464326
209	0x3ee55da1	0.44797996
210	0x3defd4d4	0.117105156
211	0x3ebe8668	0.3721192
212	0x3d086a28	0.033304363
213	0x3e8b538c	0.2721218
214	0x3e199c14	0.15000945
215	0xbd678e1e	-0.056532018
216	0x3d707f03	0.058714878
217	0x3e150c0d	0.14555378
218	0x3ebfebd9	0.37484625
219	0x3e207ad9	0.15671863
220	0xbda47b31	-0.080313094
221	0x3e908a96	0.28230733
222	0xbe031b10	-0.12803292
223	0x3e98766b	0.29777846
224	0x3e1e3fd7	0.1545404
225	0x3e89dcd5	0.26926294
226	0xbefae946	-0.49006099
227	0x3eed81e2	0.46388155
228	0x3ea4d39c	0.32192695
229	0x3e638508	0.22218716
230	0x3db142cd	0.08655319
231	0xbf05bdc6	-0.52242696
232	0xbfb0c34e	-1.3809602
233	0x3d327502	0.04356862
234	0xbe510d68	-0.2041527
235	0x3e4005eb	0.18752258
236	0xbe91175b	-0.2833813
237	0x3e6e4557	0.23268639
238	0x3e4d86a1	0.20070888
239	0xbfc74fd8	-1.5571241
240	0x3e4f2eff	0.20232771
241	0x3b010340	0.0019685775
242	0x3d696a55	0.05698617
243	0x3e697752	0.22799423
244	0x3dec9eb9	0.115537114
245	0xbfefe8f5	-1.8742968
246	0x3e487b75	0.19578345
247	0xbeb1e4b1	-0.3474479
248	0x3bb8e797	0.005642842
249	0xbecd11f1	-0.4005275
250	0x3e87e6fb	0.26543412
251	0xbdc4e614	-0.096141964
252	0x3e8dd76d	0.2770342
253	0xbe39e2aa	-0.18152872
254	0xbf2bbb67	-0.6708283
255	0x3e709e41	0.23497869

mlp.2.bias f4 [64]
0	0xbec44117	-0.3833091
1	0xbe1edf13	-0.15514784
2	0xbd95ea71	-0.07320107
3	0xbedcaa11	-0.430985
4	0xbd58179c	-0.05275689
5	0xbe921aee	-0.2853617
6	0xbeeadc4a	-0.45871192
7	0xbe4a2304	-0.1973992
8	0xbeacd37e	-0.33755106
9	0xbea67d82	-0.3251763
10	0xbd9d5899	-0.07682914
11	0x3cdd18e3	0.026989406
12	0xbdfbf22d	-0.12302051
13	0xbe1711ad	-0.14752837
14	0xbea86988	-0.32893014
15	0xbe458ef0	-0.19292808
16	0xbe43d28e	-0.19123289
17	0x3d9b761a	0.075908855
18	0xbe9dc9a8	-0.30817914
19	0xbe37e2fd	-0.17957683
20	0xbde9b1ae	-0.11410843
21	0xbe7e4d74	-0.24834234
22	0xbe86ea0b	-0.26350436
23	0xbeb437d8	-0.35198855
24	0xbe2d4083	-0.1691914
25	0xbea6000d	-0.32421914
26	0xbeac35c8	-0.33634782
27	0x3cd86190	0.026413709
28	0xbe3f4442	-0.18678382
29	0xbda142bc	-0.07874057
30	0xbdeebb40	-0.11656809
31	0xbd0bfc2b	-0.034176033
32	0xbe2aab6b	-0.16666953
33	0xbe773ae9	-0.24143566
34	0xbe905042	-0.28186232
35	0x3e0d790d	0.13815708
36	0x3d5c3422	0.053760655
37	0x3d5ec98e	0.054391436
38	0xbe9ea155	-0.30982462
39	0xbf060066	-0.5234436
40	0xbe13dd21	-0.14439823
41	0x3e8bf791	0.27337316
42	0x3e25c309	0.16187681
43	0x3d4e9dc8	0.05044344
44	0xbd26d8fc	-0.040734276
45	0xbe449eff	-0.19201277
46	0xbdbb54da	-0.091470435
47	0xbe8a7a35	-0.27046362
48	0xbe802984	-0.25031674
49	0x3e40b5b0	0.18819308
50	0xbe1334bf	-0.1437559
51	0x3c89e4f1	0.0168328
52	0x3c9118ab	0.017711958
53	0xbe2ea7b3	-0.1705616
54	0xbe92f482	-0.2870217
55	0xbe9ed036	-0.31018227
56	0xbd10e1e5	-0.03537168
57	0xbe6b15de	-0.2295756
58	0xbddf96cf	-0.10917436
59	0xbd9a23c0	-0.0752635
60	0xbdb983c5	-0.09058336
61	0xbe3b557b	-0.18294327
62	0xbe3f8bf7	-0.18705736
63	0xbe8c72a9	-0.2743123

mlp.4.weight f4 [64, 64]
0	0x3e408ee4	0.18804508
1	0xbed546a8	-0.4165547
2	0xbc29cb07	-0.010363347
3	0x3e19c5be	0.15016839
4	0x3eb293e2	0.3487845
5	0xbf87ad36	-1.0599735
6	0x3dbe3617	0.092876606
7	0x3c2151a7	0.009846128
8	0xbd45b9ab	-0.04827277
9	0xbdc0d022	-0.09414698
10	0x3e6cd35b	0.231275
11	0x3ee62654	0.44951117
12	0x3d502b0a	0.050822295
13	0xbec964b0	-0.3933463
14	0xbcfda4f5	-0.030962447
15	0x3ede7728	0.43450284
16	0x3e11d339	0.14240731
17	0xbc438d38	-0.011935525
18	0xbe212ce9	-0.15739788
19	0xbf090cc5	-0.5353511
20	0x3d29a13d	0.041413534
21	0x3db2700b	0.08712777
22	0x3e9701b9	0.29493502
23	0x3ea4c7fc	0.32183826
24	0xbe67adaa	-0.22624841
25	0xbe99fe5d	-0.30076876
26	0x3e7b768c	0.24556941
27	0x3e1a5204	0.15070349
28	0xbc861dd3	-0.016371643
29	0xbea43550	-0.32071924
30	0xbde8ddf8	-0.11370462
31	0x3d8a61bf	0.06756925
32	0xbe804b04	-0.25057232
33	0xbe4ff5d8	-0.20308626
34	0xbcc904bf	-0.024538396
35	0xbe790c16	-0.24321017
36	0xbe781c13	-0.2422946
37	0xbd0ce51e	-0.03439819
38	0xbe2feacb	-0.1717941
39	0x3e9c95ac	0.3058294
40	0xbd1c9a08	-0.038232833
41	0xbec98dce	-0.39366
42	0xbf00680d	-0.5015877
43	0x3c09e5bf	0.008416592
44	0xbf480e6e	-0.7814702
45	0x3e06b6bc	0.13155645
46	0xbd372a8c	-0.04471831
47	0x3e8b29c2	0.27180296
48	0x3c6cd76e	0.014455659
49	0xbea066d3	-0.3132845
50	0xbf0e7499	-0.55646664
51	0xbe4cdb5c	-0.20005554
52	0x39ae33a9	0.00033226356
53	0xbe846df7	-0.25865147
54	0x3ee04870	0.43805265
55	0x3e004036	0.12524495
56	0xbda5bf8d	-0.08093176
57	0xbf4a979a	-0.79137576
58	0xbd908e0d	-0.07058344
59	0x3e06e3be	0.13172814
60	0xbbbc3793	-0.0057439297
61	0xbd54e60f	-0.051977213
62	0x3edbca75	0.429279
63	0xbfa726b2	-1.3058684
64	0xbfc44c15	-1.5335718
65	0xbe27d8b5	-0.16391261
66	0xbd39182b	-0.045189064
67	0xbef2c3b8	-0.47414947
68	0xbc9c3985	-0.019070396
69	0xbed4d7d1	-0.41570905
70	0xbe1c26f9	-0.15249242
71	0x3ce0f9ec	0.027462922
72	0x3d4a40d4	0.04937823
73	0x3aac98be	0.0013168079
74	0xbe7dbadd	-0.24778314
75	0xbe0dd75c	-0.13851684
76	0xbc9b33a6	-0.018945526
77	0x3d99446c	0.074837536
78	0xbd7f762e	-0.062368564
79	0xbd81127f	-0.06302356
80	0xbd9fc44b	-0.07801112
81	0x3dec04de	0.11524366
82	0xbe0fe0a7	-0.14050542
83	0x3d771d2f	0.060330566
84	0xbde3394e	-0.110949144
85	0x3ce0a6cb	0.027423283
86	0x3dc2daf5	0.09514419
87	0x3d1ecf0e	0.03877168
88	0x3d85bfa3	0.065306924
89	0x3d975f67	0.073912434
90	0xbe3c932b	-0.18415515
91	0xbe085a89	-0.13315786
92	0x3d05468d	0.032537986
93	0xbe24bb21	-0.16087009
94	0xbc976161	-0.018479051
95	0xbdc28fd9	-0.09500093
96	0xbe009bb8	-0.12559402
97	0xbdc75db1	-0.09734667
98	0xbbcac65e	-0.006188198
99	0xbdb73832	-0.08946265
100	0xbd9ed848	-0.07756096
101	0x3d1c2eea	0.03813068
102	0xbd070948	-0.032967836
103	0xbd3453e0	-0.044025302
104	0x3ccb08a2	0.02478439
105	0xbe13b130	-0.1442306
106	0xbcea6244	-0.02861131
107	0xb912fae3	-0.00014017108
108	0x3d81b3b6	0.06333105
109	0xbf099c68	-0.5375428
110	0xbdea8eea	-0.1145304
111	0xbe401951	-0.18759657
112	0x3e1c00ba	0.15234652
113	0xbe0cb572	-0.13741091
114	0xbc9bba0c	-0.019009613
115	0xbe1c4877	-0.15262018
116	0xbd175889	-0.036949668
117	0x3d9bfd17	0.076166324
118	0xbeda6442	-0.42654616
119	0x3d71034b	0.05884103
120	0x3e171b7d	0.1475658
121	0xbe357621	-0.17720844
122	0xbed4032d	-0.41408673
123	0x3d079333	0.033099364
124	0x3e02049f	0.12697075
125	0xbe2de534	-0.16981965
126	0x3cf20070	0.029541224
127	0xbfb832b2	-1.4390471
128	0x3e55bb40	0.20872211
129	0xbe0f9449	-0.1402141
130	0x3b8b0a8b	0.0042432
131	0x3dd4d359	0.10391874
132	0x3dfe4a73	0.12416544
133	0x3e5e6808	0.21719372
134	0xbeb20739	-0.34771135
135	0x3be86efb	0.007093308
136	0xbe19530c	-0.14973086
137	0x3d58e9df	0.05295741
138	0x3e5e603a	0.21716395
139	0xbdc944f1	-0.09827603
140	0x38f52500	0.00011689402
141	0xbe8053fe	-0.2506408
142	0xbf397da8	-0.7245736
143	0xbe6be14e	-0.23035166
144	0xbe215ff6	-0.15759262
145	0xbbccd412	-0.0062508667
146	0xbd972262	-0.07379605
147	0xbe0afecc	-0.1357376
148	0xbd359e83	-0.04434062
149	0xbe317bab	-0.17332332
150	0xbe6d1efa	-0.23156348
151	0xbe3c0543	-0.18361382
152	0x3de9ad2d	0.11409984
153	0xbf69599d	-0.91152364
154	0xbebe6ea2	-0.3719378
155	0x3e180dd2	0.14849022
156	0xbe68408a	-0.2268087
157	0xbe3296b9	-0.17440309
158	0xbf7ed79e	-0.99547756
159	0x3d678c49	0.05653027
160	0xbe4165b8	-0.18886459
161	0xbe27b55c	-0.16377777
162	0xbe2541e2	-0.16138414
163	0x3e8153a2	0.2525912
164	0xbe335391	-0.17512347
165	0x3bbb2fd2	0.0057124877
166	0xbe846077	-0.25854847
167	0xbe3aa1be	-0.18225762
168	0x3e990639	0.2988756
169	0x3e5abaee	0.2136037
170	0x3e238c83	0.1597157
171	0xbb7dce91	-0.003872786
172	0x3cb7ea91	0.022450717
173	0x3e8b8267	0.27247927
174	0xbe21f27a	-0.15815154
175	0x3d2c51cb	0.04207019
176	0xbf08efd8	-0.5349097
177	0x3e82c2ad	0.2553915
178	0x3db5123d	0.08841369
179	0x3d43e125	0.047822136
180	0x3b4ed9c7	0.003156291
181	0x3e1ac161	0.1511283
182	0xbde6ba26	-0.11265974
183	0xbdbe1618	-0.09281558
184	0xbc5ac94e	-0.013353659
185	0x3d542d17	0.051800814
186	0x3e8bec71	0.27328828
187	0x3d2db237	0.042406287
188	0xbf028eba	-0.50999033
189	0xbdf102b2	-0.11768092
190	0xbf021974	-0.5082009
191	0xbe50161a	-0.20320931
192	0xbc9c278d	-0.019061828
193	0xbd848856	-0.064713165
194	0x3af1c587	0.0018445709
195	0x3d1b10b2	0.03785772
196	0x3c8525c4	0.01625336
197	0x3d714f45	0.058913488
198	0xbe450e5f	-0.19243763
199	0x3c95f87f	0.018306969
200	0xbd9f1ef4	-0.07769576
201	0x3e07e02b	0.13269107
202	0xbd9f59c2	-0.07780792
203	0x3e0d6150	0.13806653
204	0xbce993b3	-0.028512811
205	0x3dec4d78	0.115382135
206	0xbde63b39	-0.112417646
207	0xbd9f6b9f	-0.07784199
208	0xba4938b7	-0.00076759927
209	0xbd31307c	-0.04325913
210	0xbd706245	-0.058687467
211	0xbd2abc20	-0.041683316
212	0xbd8217e1	-0.06352211
213	0xbdc07f19	-0.09399242
214	0xbda11ded	-0.07867036
215	0xbd775655	-0.060385067
216	0xbd10a270	-0.035311162
217	0xbd85b62d	-0.06528888
218	0x3d70103d	0.058609236
219	0xbd9412ac	-0.07230124
220	0xbdf0df5f	-0.11761355
221	0xbde47592	-0.11155237
222	0x3d981ce0	0.074273825
223	0x3d3c034d	0.045901585
224	0xbd61245f	-0.054966327
225	0xbcce3792	-0.025172982
226	0x3d21bd91	0.039487425
227	0x3e0e3da0	0.13890696
228	0x3c3adea7	0.0114056235
229	0x3d324379	0.04352138
230	0xbdead370	-0.1146611
231	0x3db4b8b9	0.088242956
232	0xbd414721	-0.047186974
233	0xbde827f2	-0.11335744
234	0x3d76737a	0.06016872
235	0xbcaaf254	-0.020867504
236	0xbd17ab27	-0.037028458
237	0x3ce2921b	0.02765756
238	0xbd8b0594	-0.06788173
239	0xbe21f5ef	-0.15816472
240	0xbd97b9d5	-0.074084915
241	0xbcae670f	-0.021289377
242	0x3d3e12d0	0.04640466
243	0xbd39d2fa	-0.04536722
244	0xbd3d7107	-0.04625037
245	0xbd3e119f	-0.046403524
246	0x3e039d89	0.12853064
247	0x3db05da6	0.08611612
248	0x3dd5081f	0.104019396
249	0xbb9c1d5f	-0.0047642435
250	0x3d2993aa	0.04140059
251	0xbd8c4eba	-0.068509534
252	0x3cb74e4a	0.022376198
253	0xbd08c1ea	-0.033388056
254	0x3dd60a19	0.10451145
255	0x3d19d568	0.037557036

mlp.4.bias f4 [64]
0	0xbeeca9ad	-0.46223202
1	0xbd0e952e	-0.034810238
2	0x3dc414f0	0.09574306
3	0xbd6101f1	-0.054933492
4	0xbdac0abd	-0.08400486
5	0x3ceee9a9	0.029164152
6	0xbccd711b	-0.025078347
7	0xbd26d37e	-0.04072904
8	0xbd54d041	-0.05195642
9	0xbe98e566	-0.29862517
10	0xbf0d7a91	-0.55265146
11	0xbe444b61	-0.1916938
12	0xbf0a366a	-0.5398928
13	0xba1eb180	-0.0006053671
14	0xbd21786e	-0.03942149
15	0xbe30d1b5	-0.17267497
16	0xbc246098	-0.010032795
17	0x3d3f7cdf	0.046749946
18	0xbf0d1bf4	-0.5512078
19	0xbd153a10	-0.036432326
20	0xbc06268a	-0.008187899
21	0xbe9c118e	-0.30482143
22	0x3cec1df5	0.028822878
23	0xbf120dbf	-0.57052225
24	0xbea292a4	-0.31752503
25	0xbde47bd2	-0.11156429
26	0xbeb0a326	-0.34499472
27	0xbef2f883	-0.47455224
28	0xbd021f97	-0.031768408
29	0xbd93b31c	-0.07211897
30	0x3e08098e	0.13284895
31	0x3d1e0326	0.03857722
32	0xbe5a2b35	-0.21305545
33	0xbd7157b4	-0.05892153
34	0x3d914d51	0.07094825
35	0xbd66412c	-0.056214496
36	0xbe90ac2f	-0.28256366
37	0xbc85f719	-0.016353177
38	0xbdd159e7	-0.10222226
39	0x3b87bcbb	0.0041423715
40	0xbd085e5f	-0.033293124
41	0xbdae1926	-0.085008904
42	0xbe03f0fa	-0.12884894
43	0xbe422709	-0.18960203
44	0xbe2f5972	-0.17123964
45	0xbea45f1d	-0.32103816
46	0xbd6cbbbd	-0.05779623
47	0xbd86ec63	-0.06588056
48	0xbc93961b	-0.018015912
49	0x3cea2042	0.028579835
50	0xbe50a8d0	-0.20376897
51	0xbee7d6a1	-0.45280936
52	0x3d832b36	0.06404726
53	0xbe8c0cfd	-0.2735366
54	0xbe403dc8	-0.18773568
55	0xbe5496b8	-0.2076062
56	0x3e0fcc99	0.14042892
57	0xbe8b5aaa	-0.2721761
58	0xbe6113ae	-0.21980163
59	0xbe84982f	-0.25897357
60	0xbefab9ba	-0.48969823
61	0xbec4ffd4	-0.3847643
62	0xbe3d4621	-0.18483783
63	0x3d0de6a6	0.03464379

mlp.6.weight f4 [2, 64]
0	0x3e89fe29	0.2695172
1	0x3b4bde50	0.003110785
2	0xbd572a6a	-0.052530684
3	0xbbb8ad10	-0.005635865
4	0x3e5838c8	0.2111541
5	0x3b24812b	0.0025101404
6	0xbd96cc66	-0.07363205
7	0xbc96f585	-0.01842762
8	0xbace7d8f	-0.0015753972
9	0x3e8bda27	0.27314875
10	0xbd0ce0c8	-0.034394056
11	0xbcb7cf06	-0.022437584
12	0xbda658cc	-0.081224054
13	0x3b6c30f6	0.0036039925
14	0x39baa608	0.00035600387
15	0x3dd8c10a	0.10583694
16	0x3bb580bb	0.0055390275
17	0x3c35e2ef	0.0111014685
18	0x3cbec889	0.023288982
19	0xbd9b60d5	-0.075868286
20	0x3bb00659	0.0053718504
21	0x3e5a20bd	0.21301551
22	0x3b0f54dc	0.0021870648
23	0xbdcb9b3e	-0.099417195
24	0xbe0cb31b	-0.13740198
25	0x3abeb3f7	0.0014549483
26	0x3cc9fbbb	0.024656167
27	0x3cf5e8d8	0.030018255
28	0xba4fb6ba	-0.0007923652
29	0x3b010f17	0.0019692832
30	0x3e8a6138	0.27027297
31	0x3e22bc73	0.158922
32	0xbe8c153e	-0.27359957
33	0x3a9439e3	0.0011308755
34	0x3e32d2f5	0.17463286
35	0xba2fe76e	-0.0006710206
36	0xbd879883	-0.06620886
37	0x3b449fbc	0.0030002436
38	0x3b6376bc	0.0034708222
39	0x3b8aea84	0.004239382
40	0x3b444805	0.0029950154
41	0xbb27dc96	-0.0025613657
42	0xbd559cc6	-0.052151464
43	0x3e1834ad	0.14863844
44	0x3b2be038	0.0026226174
45	0xbe9d7543	-0.30753526
46	0xba7c5fa0	-0.00096272863
47	0xbcaa429e	-0.020783719
48	0xbc48d890	-0.012258664
49	0x3a936da3	0.0011247884
50	0x3e86e115	0.263436
51	0x3c4e0fc1	0.012576998
52	0xbd47c561	-0.04877222
53	0xbd068d0f	-0.032849368
54	0x3a8c9327	0.0010725007
55	0xbe2e01f1	-0.16992928
56	0xbc89102d	-0.016731346
57	0xbea61446	-0.32437342
58	0xbe6926af	-0.22768663
59	0xbe51d7ed	-0.20492525
60	0xbea6b049	-0.3255637
61	0x3e6f6b90	0.23380876
62	0xbe3b9865	-0.18319853
63	0x3b349046	0.0027551814
64	0x3e76d204	0.24103552
65	0xba80a789	-0.0009815554
66	0x3e3ce87d	0.18448062
67	0xba690c05	-0.00088900357
68	0xbcc9791a	-0.024593879
69	0x39177d08	0.0001444706
70	0x3ded3125	0.11581639
71	0xbc08972f	-0.008336826
72	0xbc04bdcb	-0.008101891
73	0xbcb862de	-0.022508081
74	0xbda71e30	-0.08160055
75	0x3e15617c	0.14587969
76	0x3ea22028	0.31665158
77	0xbb8bf76b	-0.004271438
78	0xbaa9fb9a	-0.001296866
79	0x3d0e7375	0.034778077
80	0x3a88effc	0.0010447497
81	0xbe0588ed	-0.13040514
82	0x3d45284d	0.048134137
83	0xbdb28d5b	-0.08718368
84	0xbb8ed211	-0.004358538
85	0xbca654a2	-0.020304028
86	0x3b2d2300	0.0026418567
87	0x3ca20444	0.019777425
88	0x3d9cb76c	0.076521724
89	0x3b9b96e2	0.0047482112
90	0xbe4049d9	-0.1877817
91	0x3e67a233	0.22620468
92	0x3aa05e0a	0.0012235057
93	0xbb85c5b6	-0.004082407
94	0xbd48608e	-0.048920207
95	0x3e0251a4	0.12726456
96	0xbb118960	-0.0022207126
97	0x3b0ac3bb	0.0021173793
98	0xbe44c89c	-0.19217151
99	0xba92f892	-0.0011212996
100	0xbc941d04	-0.018080242
101	0xbafb483d	-0.0019171309
102	0xbb2e61ad	-0.0026608512
103	0xbbad45a3	-0.0052878424
104	0xbc15cfc9	-0.009143778
105	0xbb05144c	-0.0020306287
106	0x3cb098fb	0.021557322
107	0xbe4ec584	-0.20192534
108	0xbc4eb03b	-0.012615259
109	0xbe616ffe	-0.22015378
110	0xbba96f8c	-0.005170768
111	0xbb62e58b	-0.0034621682
112	0x3d391c8f	0.04519325
113	0xbb8621fa	-0.004093406
114	0x3e0a4b40	0.13505268
115	0xbd8934b3	-0.06699505
116	0xbe8cd9a7	-0.27509806
117	0x3daa088e	0.08302413
118	0xbd974148	-0.07385498
119	0x3d9b5bea	0.075858906
120	0xbe43405f	-0.19067524
121	0xbe1e702f	-0.15472482
122	0x3e3d078c	0.1845991
123	0xbe9103b5	-0.2832314
124	0xbb806480	-0.0039182305
125	0xbc819102	-0.015816215
126	0x3cc23073	0.023704743
127	0xbb39c0de	-0.0028343718

mlp.6.bias f4 [2]
0	0xbcda69cd	-0.026661778
1	0x3d684352	0.056704827
