demo_RNVP_model_1000.pth (torch, 121573 bytes, 42 tensors)

layers.0.mask f4 [2]
000000 00 00 80 3f 00 00 00 00
       1.0 0.0

layers.0.st_net.net.0.weight f4 [64, 1]
000000 e4 6d 72 bf 2b b9 0c 3e f5 4a c7 bc 8c 07 48 bf
       -0.9469893 0.13742511 -0.024327734 -0.78136516
000010 2c 5f 44 3f a7 1d f0 3e 0d 3e 39 3c 3f b8 41 bf
       0.7670772 0.46897623 0.011306298 -0.7567176
000020 65 10 0e bd b4 06 00 3f 04 a2 81 3f c8 af 31 bf
       -0.034683604 0.5001023 1.0127568 -0.69408846
000030 58 82 2e 3e 16 ab ba 3f 0c 73 b4 3f b3 d9 e2 bc
       0.1704191 1.4583461 1.409761 -0.027691698
000040 f1 97 83 bf c9 99 4b bf 89 92 66 bf 66 0e 4e 3f
       -1.0280744 -0.7953153 -0.90067345 0.8049072
000050 ce e7 a3 3f c1 43 49 bf 1f c2 10 be 92 a0 b9 3f
       1.2805116 -0.7861901 -0.14136551 1.4502127
000060 c9 84 a0 bf e2 5d a8 bf 3b e0 b8 bf f5 39 a2 bf
       -1.2540523 -1.3153651 -1.444343 -1.2673937
000070 10 3e 86 3f f3 21 7b bf f2 c7 44 bf 06 5f 2c bf
       1.048769 -0.9809868 -0.7686759 -0.67332494
000080 09 3c 37 3f bd 7b 5b 3f d3 6d 0e 3f 68 59 69 bf
       0.7157598 0.85735685 0.5563633 -0.9115205
000090 19 dc 80 3f 27 f3 29 bf a1 3c 9b bf f7 ec 80 bf
       1.0067168 -0.66386646 -1.2127877 -1.0072316
0000a0 06 36 af bf 7f 46 d0 bc 58 92 b4 3f a8 8c 16 bc
       -1.3688362 -0.02542424 1.410716 -0.0091888085
0000b0 c1 cd 10 3f e9 34 5f 3f 65 d2 41 bf 68 47 38 be
       0.56563956 0.8719011 -0.7571166 -0.1799599
0000c0 44 34 95 3e 1b 38 ad bf 29 26 1c 3f 4b 4e 7d bf
       0.29141438 -1.3532747 0.6099573 -0.9894759
0000d0 a6 bc e6 3e 5c 71 a1 3f 22 94 f6 be eb 8e 55 3f
       0.45065802 1.261272 -0.4815989 0.834212
0000e0 b2 c1 07 3f ef ad a0 3e 38 23 85 3f e8 4c 7d bf
       0.5302993 0.313827 1.0401373 -0.98945475
0000f0 c8 a8 99 3c 60 ac 96 bc 33 00 d0 bf e2 bf 9f 3f
       0.018757239 -0.018392742 -1.6250061 1.2480433

layers.0.st_net.net.0.bias f4 [64]
000000 13 e6 0a 3f 2e d9 9b bd c0 bd 27 bc 06 15 c4 3e
       0.54257315 -0.07609783 -0.010238111 0.3829729
000010 f4 26 51 3e c1 7e 5e 3e bd 89 49 ba e1 dd 7a be
       0.20425016 0.2172804 -0.0007688066 -0.24498703
000020 97 31 21 bc f5 cd 08 3e 52 1f 6e 3e 21 68 9d bd
       -0.009838483 0.13359816 0.23254135 -0.07685877
000030 35 72 9f 3d d3 a0 3f bf 48 45 fc 3d 36 71 be 3c
       0.07785455 -0.74854773 0.12317902 0.023247343
000040 db 96 9c 3e 3e b7 84 be c5 85 73 3c ad 47 a8 3c
       0.30583844 -0.25921053 0.014863436 0.02054199
000050 f1 f2 2a bf d6 4f aa bd b4 bf 54 3d ce d1 4e bf
       -0.6677695 -0.08316009 0.051940635 -0.80788887
000060 52 06 23 3f 54 4b ba bd 3b ad 51 3f b4 a1 26 3f
       0.6368152 -0.09096399 0.81904954 0.6509049
000070 ce e3 65 be 8b 3a f5 3e 55 84 bc 3e b6 3c a2 3e
       -0.22450182 0.47896227 0.3681971 0.31686944
000080 1c 10 e1 3d 1c 48 d3 be 1b ff 43 3d 40 b2 f0 3e
       0.10989401 -0.41265953 0.04785071 0.47010994
000090 b9 13 e9 3d 94 9a b7 be 01 d7 18 3f f4 a8 07 3f
       0.11380715 -0.3586012 0.5970307 0.52992177
0000a0 84 41 2c 3f 47 7e ab 3c 72 0d 11 be 26 a8 af 3b
       0.6728747 0.020934237 -0.14165285 0.005360621
0000b0 b7 f1 98 be 6b 3e ab be d4 27 be 3e 3e 6a b4 3e
       -0.29871914 -0.3344606 0.3713976 0.35237306
0000c0 53 4c be be cf 31 47 3f b5 c5 09 bd 9f b6 5c be
       -0.37167606 0.77810377 -0.033635814 -0.2155404
0000d0 ac 16 b8 be 88 da 18 bf f3 a1 ab 3c 30 ce 9f be
       -0.35954797 -0.5970845 0.020951247 -0.31211996
0000e0 86 84 d3 be 89 2f f2 ba cc 28 c7 be e5 73 f3 3e
       -0.41312045 -0.0018477301 -0.38898313 0.47549358
0000f0 f2 e7 8b b9 b4 df b5 3c ad 51 0a be cb dc 21 bf
       -0.0002668496 0.022201397 -0.1350772 -0.6322753

layers.0.st_net.net.2.weight f4 [64, 64]
000000 21 3d ca 3c eb c6 91 bc 00 4f 32 bd 1e 60 04 bd
       0.024687352 -0.017795047 -0.04353237 -0.032318227
000010 34 cf 21 bd 03 f8 c7 3d 51 2a 73 bc 13 bb 05 be
       -0.039504245 0.09764101 -0.014841632 -0.13059644
000020 f1 72 b7 3d 9a 7a f6 bc f4 47 a6 3d 7d 70 d9 bd
       0.0895747 -0.030087758 0.08119193 -0.106171586
000030 20 b3 e7 3d f4 55 bd 3c 80 35 a2 3d f7 c9 b5 bd
       0.11313462 0.023112275 0.079203606 -0.08876412
000040 45 b5 21 3d 00 ce f8 bd 45 01 37 3d 4d 23 d9 bd
       0.039479513 -0.121486664 0.044678945 -0.10602436
000050 2c 5b 5b 3d 1b 31 2e 3d a2 ad 47 bd f0 eb d4 3c
       0.053553745 0.0425273 -0.048749574 0.02599141
000060 52 31 89 3d f8 bf c3 bd 77 6c cf 3d d3 2a 44 bd
       0.0669886 -0.095580995 0.1012811 -0.047892403
000070 19 e3 16 be c3 54 e1 bd 8e 88 14 bd 3c 45 5d 3d
       -0.14735068 -0.11002495 -0.03626304 0.054021105
000080 9a 5c 74 bd d5 d5 36 3d 03 63 1c bc 98 e2 52 ba
       -0.059658624 0.04463752 -0.009545091 -0.00080446294
000090 f6 83 02 3d 31 1a cf bd 4a 74 06 3d 16 b9 c6 bd
       0.03186413 -0.101124175 0.032825746 -0.09703271
0000a0 b0 6c 90 3d ed 06 dd 3c a7 61 0a be 51 87 0d 3d
       0.070519805 0.026980842 -0.13513814 0.034552876
0000b0 c9 a7 e8 3d ed 5b 40 3d ad be b0 bd 87 cf 00 be
       0.113601275 0.046962667 -0.086301185 -0.12579165
0000c0 9d 64 55 3c 37 fa a2 3d d7 6b b8 bd 5a db 88 3d
       0.013024476 0.07957881 -0.09004944 0.06682463
0000d0 22 04 ba 3c f4 da ec bd 4a 3b 80 3d 8f ba d5 3d
       0.022707049 -0.115651995 0.062613085 0.10435974
0000e0 eb 0a a2 bc d4 08 f8 3c 1e b2 c3 bd 24 5d f0 bc
       -0.019780597 0.030277647 -0.095554575 -0.029341288
0000f0 a0 be f0 bc 84 2f fa 3c b7 72 af 3c 0d 60 b8 3c
       -0.029387772 0.030540235 0.021417005 0.022506738
000100 2b 4c bc 3d c7 03 83 bd 10 3b d5 bc ce d4 32 3c
       0.091942154 -0.06397205 -0.02602914 0.010914994
000110 77 e5 07 bf 08 0a cb be 17 c0 c4 3d 8f 5d ff 3e
       -0.5308451 -0.3965609 0.09606951 0.49876067
000120 99 84 cf bd f2 c3 0b bf 54 14 2e bf b3 00 7a 3f
       -0.10132713 -0.54595864 -0.6799977 0.97657317
000130 56 bb cd be a9 29 95 bd 97 1b 7d bf 86 1e 48 3c
       -0.40181988 -0.07283337 -0.98870224 0.012214309
000140 6e d4 e8 3e eb 8d d9 3e f4 69 9e 3f 89 93 de bf
       0.4547457 0.42491087 1.2376084 -1.7388774
000150 ae 44 a8 bd 6e bd 6d 3f b7 bb db 3c 90 fe 0b be
       -0.082162246 0.9286717 0.026822908 -0.13671327
000160 3c 19 2a 3e fb 6c a2 3f e6 ad c6 3c 62 9b 3f 3d
       0.16611189 1.2689508 0.024252843 0.046779044
000170 4e f2 b6 be d1 44 55 3e b5 3f 8e 3d 83 76 61 3d
       -0.3573174 0.20827033 0.06945745 0.055044662
000180 64 50 18 bf 77 80 1a be 60 66 71 bf a1 db e5 3d
       -0.59497666 -0.15088068 -0.94296837 0.112235315
000190 69 07 66 bf de 75 be 3e f3 d9 7d 3e 08 fc 0d 3e
       -0.89855057 0.371993 0.24790172 0.13865674
0001a0 4f a9 5b 3e 40 12 2b bc 61 a6 64 bf 9e a5 08 3e
       0.21451305 -0.010441363 -0.89316374 0.13344428
0001b0 eb ed c4 3c c8 3b 92 be b5 e2 d9 3d ef 6b 69 be
       0.02403923 -0.28561234 0.10638944 -0.2279508
0001c0 a5 fc 67 bc b8 b4 6b bc 7e 10 6c bf dc a8 10 3f
       -0.014159356 -0.014386348 -0.92212665 0.5650766
0001d0 4a e2 61 3d f9 56 8f be 0e 9a 74 3f b0 2d 4f be
       0.055147447 -0.27996042 0.9554757 -0.20232272
0001e0 46 b7 09 3e 1f 68 51 bf a6 36 b3 be 92 c3 36 3e
       0.1344882 -0.817995 -0.3500263 0.17848042
0001f0 bd f3 b7 bd 12 86 f2 3d fe 90 9e 3f 8c 93 22 be
       -0.08982036 0.11841978 1.2387998 -0.15876597
000200 47 e2 fb 3c b5 13 1e be 96 52 a2 bc 4e 31 97 3d
       0.030747546 -0.15437205 -0.01981477 0.07382451
000210 18 4a f0 bd 9e 71 b8 3d c7 07 8a bd 4d d7 ef 3b
       -0.11732882 0.09006046 -0.06739765 0.007319367
000220 db 82 19 3d c7 e9 fc bd d6 dd b3 bd 45 de 84 bd
       0.03747831 -0.12349277 -0.08782546 -0.06487707
000230 97 d3 c8 3d a1 4d 35 bc 05 d1 a1 3d 0e a6 6c 3d
       0.098059826 -0.011065871 0.079011954 0.05777555
000240 41 bb 02 be 0c 1e 50 bd f0 ab 7b b8 cd 7e 7c bd
       -0.12766744 -0.050809905 -6.0003193e-05 -0.061644364
000250 47 3c 09 3c da 78 d0 3d d5 30 b2 3d d9 88 83 bc
       0.008376188 0.101793006 0.0870072 -0.016056465
000260 b0 11 7f 3c c6 05 1e 3c 88 16 96 bd 9f 81 e0 3b
       0.015568182 0.009644931 -0.07328516 0.0068513895
000270 ba db 2f 3d a3 a4 72 bd 83 00 a6 3d 6a 5e 83 bd
       0.042934157 -0.05923904 0.08105566 -0.064144924
000280 c8 14 2f 3d 8f 6b 50 bc 58 35 cc bb 58 00 46 bd
       0.042744428 -0.0127209565 -0.006231945 -0.04834017
000290 ce 32 00 be cf ac 98 3d 98 5e 00 be ab 2c e3 3c
       -0.1251938 0.074548356 -0.12536085 0.02773126
0002a0 ac 29 87 3d 04 9d d1 3d 25 32 89 3d 45 c3 f9 3d
       0.06599745 0.102350265 0.066990174 0.12195448
0002b0 53 51 54 3d 44 f4 2e 3d e3 c1 06 3e 29 c0 3b 3e
       0.05183537 0.04271342 0.131599 0.18335022
0002c0 9e c0 dc bd 57 9d 29 be 57 bc 1e be 8f b7 f7 3c
       -0.10778926 -0.16563927 -0.15501533 0.030238895
0002d0 4d df c2 3c 56 eb eb 3c 65 87 d8 3d 93 21 ed bd
       0.023788119 0.02879874 0.105726995 -0.115786694
0002e0 17 d8 98 bd e0 52 2c 3b 07 90 06 bd d3 be 05 be
       -0.07463091 0.0026294515 -0.0328522 -0.13061075
0002f0 50 45 7a 3d 87 65 b3 3d 33 58 e7 bd 53 9c 87 bc
       0.061101258 0.08759599 -0.112961195 -0.016554033
000300 02 dc c6 3d 17 df 8f 3d a1 3b 97 3d a4 d0 07 bc
       0.09709932 0.07024973 0.0738442 -0.00828949
000310 23 75 c5 3d e3 4e 1c 3d fd 2b 81 3d a8 8b 28 3c
       0.09641483 0.03816117 0.06307218 0.010287203
000320 19 94 a3 3d f0 65 ed bd f6 68 85 bd 32 e5 58 bd
       0.07987232 -0.11591709 -0.0651416 -0.052952953
000330 e5 f2 d8 bb c6 2c 3b bd 58 fb 90 3c c6 5c 4a be
       -0.006620752 -0.045696996 0.017697975 -0.19761953
000340 c8 9e 9e bc 41 92 2b bb cc c8 04 be f6 82 98 3c
       -0.019362822 -0.0026179703 -0.12967223 0.018617135
000350 bd 14 a6 3d ee ee b6 bd e3 39 0c bb bb 00 f9 bc
       0.08109424 -0.08932291 -0.0021396808 -0.030395856
000360 8f f9 9d bd 48 e6 c2 3d 84 8a 9e 3d bd 36 74 3d
       -0.07713615 0.09516579 0.077412635 0.059622515
000370 11 3c 88 3d 4c bd a1 bd 49 cb a1 3c e8 f9 99 bd
       0.06652082 -0.07897434 0.019750254 -0.07518369
000380 a6 78 2a 3d 9c 1c 17 3d b9 ba e5 3d 3b bb dd bd
       0.041618966 0.03689252 0.11217255 -0.10826727
000390 6d 11 90 3d 2e 36 94 3c 83 6a 4d 3d ca f8 c9 3d
       0.07034574 0.018092241 0.050150406 0.09861906
0003a0 5a 54 29 bb 9a 4a 12 be 80 4e ac 3d bc 8e 9b bb
       -0.002583763 -0.1428627 0.0841341 -0.00474724
0003b0 2a 48 5d 3d c5 83 ac bc d0 c6 9b 3d 34 2f 1c bd
       0.0540239 -0.021058926 0.0760628 -0.038130954
0003c0 cd 54 5b 3d 38 45 6d 3b 36 a7 a8 3d e5 d9 b5 3b
       0.05354767 0.0036204588 0.08235018 0.0055496567
0003d0 37 8f d5 3d 5c 3d fb bd a8 d4 33 3d a0 9f 67 bd
       0.10427707 -0.12267563 0.043903977 -0.056548715
0003e0 7b 06 b3 3d 47 4e 08 3e b4 d3 aa bc 57 d7 db 3d
       0.087414704 0.1331111 -0.020852901 0.10734432
0003f0 d6 43 00 3e dc fa 0d be 79 90 a1 3d b0 b7 ed bd
       0.12525877 -0.13865227 0.07888884 -0.11607301

layers.0.st_net.net.2.bias f4 [64]
000000 43 30 8e bd f2 ad 35 be 90 f0 cc 3c 06 6e 54 bd
       -0.06942799 -0.17742136 0.025017053 -0.05186274
000010 ef da 13 be da d7 26 3d 38 46 aa 3d 9b b8 7b 3b
       -0.14438985 0.040733196 0.083141744 0.0038409594
000020 db e1 89 3c 12 0e b9 3c 5a a8 d8 3d 60 a2 8a 3c
       0.01683133 0.022589717 0.105789855 0.01692313
000030 42 c7 bb 3d 80 87 14 3e c1 d7 1b be 9a 58 9b bd
       0.09168865 0.14504814 -0.15219022 -0.07585259
000040 97 fb 9c be a4 c5 a8 bd 4f aa 28 3d 42 46 7e 3d
       -0.30660698 -0.08240822 0.041178044 0.06207872
000050 4b eb 2e 3c 06 8c c3 bd c9 91 2c bd cf f4 1d 3d
       0.010676215 -0.09548192 -0.04213122 0.038563546
000060 49 db 0f be a4 6b 26 be 75 af d3 3d 04 1b 9a bd
       -0.14048494 -0.16251999 0.103362 -0.07524684
000070 f4 8a b5 3f c3 ab d8 3d 2a 02 5f bd 41 bd 08 3b
       1.418303 0.10579636 -0.054445423 0.0020864757
000080 3e 32 a3 bf e6 ea d8 bc 81 2d 90 bb fc 75 28 3d
       -1.2749708 -0.026479196 -0.0043999557 0.041128144
000090 df e6 88 bd 80 93 97 3d 22 0b d4 3d 4d 6a 1e bd
       -0.0668466 0.0740118 0.10353686 -0.038675595
0000a0 03 05 a0 3d 7d c0 bf bd 69 dd 32 bc 99 94 cf bd
       0.07813456 -0.09362886 -0.010917046 -0.10135765
0000b0 79 d6 a8 3d 15 1e 16 bd dc cf 9d bd b5 80 ca 3c
       0.082440324 -0.036649782 -0.07705662 0.024719575
0000c0 c1 31 eb bc 39 09 34 bd c8 36 00 be 5c ba b7 3d
       -0.028710248 -0.043954108 -0.12520897 0.08971092
0000d0 22 52 3b 3e 6c d6 7f 3d d0 2a cf bc 4d 91 c7 bc
       0.1829305 0.062460348 -0.02528897 -0.024361277
0000e0 8f 60 65 3c c8 ad c1 bc fa 8a ad bd ab 43 7b bc
       0.014000072 -0.023642436 -0.08473773 -0.0153359575
0000f0 6d 33 02 3d 72 dc 0a 3d 63 cf 17 be db 4b 12 bd
       0.031787325 0.03390164 -0.14825206 -0.035716873

layers.0.st_net.net.4.weight f4 [2, 64]
000000 98 f2 da 3b c6 b9 25 3e 69 d1 94 bb 71 fe 09 3c
       0.0066817515 0.16184148 -0.004541565 0.00842248
000010 7c 0a b1 3a be 5c 92 bc 75 f6 3d 3c 5d 56 a4 3b
       0.0013507153 -0.017866489 0.0115944045 0.005015178
000020 d1 6e c9 bb 28 35 db 3b 34 bf 90 3b dd 52 f3 bb
       -0.0061472435 0.0066896863 0.0044173244 -0.0074256496
000030 bc 1b 4e be f3 b1 6a bb 74 04 2d 3e f5 4b 5b bd
       -0.20127767 -0.0035811632 0.1689623 -0.053539235
000040 d0 80 02 be 12 3a 8b 3c cb 6f 12 3d db e2 4b 3b
       -0.1274445 0.016995464 0.035751145 0.0031110558
000050 3e 37 55 3b 7b aa b0 3c 62 ef 6e bc 0d a9 e5 bb
       0.0032534148 0.021565666 -0.0145834405 -0.007008678
000060 e5 87 61 bb 00 eb 88 be e2 ea 14 bc 59 4a 41 bc
       -0.0034413275 -0.2674179 -0.009089204 -0.011797511
000070 51 0d 84 3e 50 ad d0 bb fd e5 65 3c aa ef b5 3b
       0.2579141 -0.0063683167 0.014031884 0.005552252
000080 7e 5d 2a be 7c 6b 1d be ee be 86 3c af f7 0c 3c
       -0.16637227 -0.15373033 0.016448464 0.008603974
000090 eb 4d 8b 3c bd 04 42 bc 38 30 3a bc 7a 89 c7 bb
       0.017004928 -0.01184195 -0.011364035 -0.0060893865
0000a0 fb 44 32 bc a3 44 28 3c 53 50 ab 3b 84 6e 30 3c
       -0.010880704 0.0102702705 0.0052280813 0.0107685365
0000b0 1b 9a 66 bc 65 dc d6 ba 49 75 6a bb 0e 51 83 3c
       -0.014074828 -0.0016392587 -0.0035775474 0.01602986
0000c0 29 4d 8d bc c3 c3 6a bb 46 6b 03 3b 86 c3 16 bb
       -0.017248707 -0.003582225 0.0020052954 -0.0023004725
0000d0 6f f1 9f bd 5c 55 68 3d e5 7e 6d bc e6 db dc 3b
       -0.07809722 0.05672203 -0.014495586 0.006740081
0000e0 6d 76 87 bc eb 03 26 bc 23 f2 1d 3c 97 4e c5 3b
       -0.016535962 -0.01013277 0.009640249 0.0060213315
0000f0 75 53 92 3b 1a 9b 9d bb 71 d5 37 3e b1 23 8d 3c
       0.0044655153 -0.0048097493 0.17952515 0.017228933
000100 7f f3 73 3b 09 5e 05 be f0 1e a8 bb 87 97 5f 3b
       0.0037223992 -0.13024153 -0.005130641 0.0034117417
000110 80 c9 93 3b cd 4e 06 bb f8 a8 a7 bc 88 6f a7 3b
       0.0045101047 -0.0020493746 -0.020466313 0.005109731
000120 41 33 2a bb 9d 20 3d 3b 2a b6 43 3a 82 96 89 3b
       -0.002597049 0.002885855 0.0007465804 0.00419885
000130 96 5e 03 3f 43 95 8b bb 50 d1 0b 3d 3f 3f 77 3d
       0.513162 -0.0042597367 0.034135163 0.06036305
000140 d9 ad 19 3e a2 a4 eb 3a 5d 64 06 bd 22 86 62 3a
       0.15007724 0.0017978142 -0.032810558 0.0008641203
000150 0b b9 a1 b7 16 f1 be 3a 9c 05 6f b9 88 5a f9 39
       -1.9278863e-05 0.0014567699 -0.00022794906 0.00047560432
000160 c2 85 ac 3d 65 ff cd 3b 1d db 58 bb 8b ed 31 bb
       0.0842395 0.006286549 -0.0033089586 -0.0027149643
000170 c7 90 51 3e 31 da 24 bb 18 36 1f 3b 87 a1 29 3b
       0.20465384 -0.0025154466 0.0024293717 0.0025883631
000180 c4 11 51 be c6 87 bd bb 64 58 56 3b 01 30 da 3a
       -0.20416933 -0.0057840077 0.0032706494 0.0016646386
000190 de 65 f8 3a 18 30 35 bb fd 87 81 ba a5 13 8f 3c
       0.0018951257 -0.0027647074 -0.0009882447 0.017465422
0001a0 66 2e 87 3a 0b ce 26 3b 27 5e 83 3b b6 42 39 3b
       0.001031351 0.00254524 0.0040090266 0.0028268523
0001b0 74 b9 12 bb 51 c2 4f ba 5d 38 0f 3c 3a cc 52 3a
       -0.002238837 -0.0007925379 0.008741465 0.00080412964
0001c0 c4 e4 24 bb b5 db cd b9 5f c2 58 3b 35 08 8a bb
       -0.002516077 -0.00039264341 0.0033074839 -0.004212404
0001d0 ca 53 2f be 2a 88 43 bd 97 d8 58 bb 28 c2 85 3b
       -0.17121807 -0.047737278 -0.0033088082 0.004081983
0001e0 a4 68 3d bb 49 57 4a bb 27 8b 96 bc dd 10 4b 3b
       -0.0028901482 -0.003087478 -0.0183769 0.0030985393
0001f0 e2 20 61 b8 5f 3e 8d bb 62 03 b1 bd 0c 8c 16 3b
       -5.3674805e-05 -0.0043104137 -0.08643223 0.0022971658

layers.0.st_net.net.4.bias f4 [2]
000000 c1 25 cd 3e 8e c5 70 3e
       0.40067866 0.23512861

layers.1.mask f4 [2]
000000 00 00 00 00 00 00 80 3f
       0.0 1.0

layers.1.st_net.net.0.weight f4 [64, 1]
000000 4e b5 ed be 50 84 fe be 76 56 f6 bd ca 6a 50 bf
       -0.46427387 -0.4971032 -0.1202821 -0.8141295
000010 84 a6 19 3f 25 fe 9e 3f dc 87 77 3f 7b aa 2c 3f
       0.6001971 1.2421309 0.9669168 0.6744763
000020 41 88 ab bf 04 b5 6c bf 44 b6 4d bf 2e bb 00 3f
       -1.3400956 -0.9246371 -0.8035624 0.50285614
000030 ec c3 ef bd a6 8a 4d 3f 3f ee 77 3e 11 87 0d 3f
       -0.11707291 0.80289686 0.24211977 0.5528422
000040 e1 84 b6 3c 0f a4 a5 3f 32 8e 06 3f 4a 04 a2 be
       0.022280158 1.2940692 0.5256072 -0.31643897
000050 8c ca f5 b9 56 cb 23 bf 4f 99 d5 be 21 53 7a bc
       -0.0004688095 -0.6398214 -0.41718528 -0.015278609
000060 69 ab 80 bd a0 97 57 3e c7 5f 55 3f e7 5d 4e 3f
       -0.06282694 0.21053934 0.8334927 0.80612034
000070 02 77 dd be b9 24 28 3f a3 f4 89 bc 7f 40 90 3f
       -0.43254858 0.65681034 -0.016840285 1.1269683
000080 dd 19 3a be 58 7c bc be 2e a2 2d bf 37 aa b9 bc
       -0.18173929 -0.36813617 -0.6782559 -0.022664173
000090 63 fc 61 3f 26 ae 6d 3e 29 65 8a bf 37 45 22 3e
       0.88275737 0.23210964 -1.0812122 0.15846716
0000a0 06 81 1d be f0 34 a8 3f bb 96 1e 3f 4e 5f 5e 3f
       -0.1538125 1.3141155 0.61948746 0.86864173
0000b0 c6 3e 08 be c3 52 19 be 7c 55 89 bf d7 50 d2 be
       -0.13305196 -0.14972977 -1.0729213 -0.410773
0000c0 01 c8 3b 3f 31 11 d7 bd 68 26 74 3f 0b 5c aa bf
       0.73352057 -0.10501326 0.95371103 -1.3309339
0000d0 d1 fb 15 3f b7 60 03 bf 0e cb 3a bf e9 e8 41 bf
       0.58587366 -0.5131945 -0.72966087 -0.7574602
0000e0 7f 01 41 3f f9 ec 41 3f bb 29 94 be 99 b3 43 bf
       0.7539291 0.75752217 -0.28938088 -0.7644592
0000f0 a6 e9 95 3e b4 c1 17 bf 15 ff 55 3b 28 cf 44 bf
       0.29279822 -0.5927994 0.0032653261 -0.76878595

layers.1.st_net.net.0.bias f4 [64]
000000 e7 ab 04 3f 79 b2 a3 be 2d 94 8b 3d 80 90 08 3f
       0.518248 -0.319721 0.06815372 0.5334549
000010 4b e6 f8 3e 36 f3 25 bf 72 c2 0c bf c3 55 3d bf
       0.486132 -0.64824235 -0.549842 -0.73958987
000020 ea f7 31 3f 04 f6 87 bf f8 11 4c bf 2d 16 65 be
       0.6951891 -1.0621953 -0.7971492 -0.2237174
000030 5a 5e df 3e 0d ca d3 be 31 dc 05 bf ff ba b8 3e
       0.43626672 -0.4136509 -0.5228911 0.36080167
000040 d6 59 92 3c a6 f9 17 bf a2 d5 5d bf f5 b2 44 3f
       0.017865103 -0.5936531 -0.866541 0.76835567
000050 25 5e b6 bc 25 73 b6 3e 95 ad 81 be b5 29 79 bb
       -0.022261688 0.35634723 -0.25327745 -0.0038019244
000060 e5 f4 91 3e 11 46 ec be f8 34 6a 3f 0e 7d 6d 3f
       0.28507152 -0.46147206 0.91487074 0.92768943
000070 c4 1b 80 be 17 e7 3e bf e2 57 be bc ef 3a 0b bf
       -0.25021183 -0.74571365 -0.023235265 -0.543868
000080 a2 aa c9 3e 60 cf 3b be 6a 89 a1 3e 8a b6 81 bd
       0.39387995 -0.18340826 0.3155015 -0.06333645
000090 ec 28 ea bd bd 3d fb be a8 ae 04 3f 1d 0f 80 be
       -0.114335865 -0.4907054 0.51829004 -0.2501153
0000a0 1f 91 8b 3e 65 be 2b bf 8b ac 94 be 2b f8 3f be
       0.27259156 -0.67087394 -0.2903789 -0.18747012
0000b0 eb 13 a4 bd e8 fb 42 3e 0f f8 06 3f de d7 7c 3f
       -0.080116116 0.19041407 0.5272226 0.9876689
0000c0 1f d5 15 3f e5 13 3a 3d ae 94 8f be 2b 82 47 3f
       0.5852832 0.04542913 -0.2804312 0.77932996
0000d0 f8 62 3e 3e f5 d6 9e be 6a b3 d3 3e 63 0b 36 bf
       0.18592441 -0.31023374 0.4134782 -0.71111125
0000e0 27 5e 45 bf 79 7e c4 3e f8 a2 30 3f 61 ea 29 bf
       -0.7709679 0.3837774 0.6899867 -0.6637326
0000f0 43 39 2e bf dc ca cc be c0 6e 08 3c 1c 5b 55 bf
       -0.68056124 -0.3999852 0.008327186 -0.83342147

layers.1.st_net.net.2.weight f4 [64, 64]
000000 e7 19 04 3e 1d 78 d2 3d f2 d3 07 3e 7a b2 4c 3d
       0.12900506 0.10276816 0.13264444 0.049974896
000010 18 a4 99 bd c5 56 67 bd d8 a3 dc bc 4c 87 7b bc
       -0.075020015 -0.056479234 -0.026933596 -0.0153520815
000020 d9 11 cd bd de c8 98 3e c6 e3 5f 3e 84 87 8f bd
       -0.1001317 0.2984075 0.21864232 -0.070082694
000030 95 dc 02 3e 29 f7 07 bc 1f 10 88 bc 3a 43 cd bd
       0.12779458 -0.008298674 -0.01660925 -0.10022588
000040 50 47 b7 3d 36 5c 8d 3d ee 34 e8 bd d0 6c de 3c
       0.08949149 0.069023535 -0.113382205 0.027151495
000050 2a 46 7d 3d ed de 5e bc b2 43 f7 3d be 93 cb bd
       0.06183449 -0.013602954 0.12073459 -0.09940289
000060 f2 f7 c1 3d f7 bf 95 bd 45 ec a2 be bf 06 56 be
       0.0947112 -0.07312005 -0.31820884 -0.20901011
000070 f0 c7 f8 3d 66 60 97 3d a1 41 fc bc 0d a9 74 bd
       0.1214751 0.073914334 -0.030793013 -0.059731532
000080 40 eb 91 3d 52 f1 08 3e 36 1b 1f bc 22 60 7e bd
       0.071249485 0.13373306 -0.009711077 -0.0621034
000090 77 1c b3 3d 37 b1 e2 bd 8a 90 75 bd 3e 83 ec bc
       0.087456636 -0.11068957 -0.059952296 -0.028871175
0000a0 e2 59 60 bd 05 d3 4e bc 47 44 9e bd cc 3c f5 bb
       -0.05477322 -0.012623553 -0.077278666 -0.007484054
0000b0 ca 53 0f 3e 71 1f a6 3d 14 0a eb bd 24 d8 f1 3c
       0.13996807 0.08111466 -0.114765316 0.02952201
0000c0 88 db 0c be ac cc f5 3c 50 06 9c bc 81 27 d6 3c
       -0.1375562 0.030004822 -0.019045979 0.026141884
0000d0 1a 9e 95 bd f4 06 30 3d 59 c0 8f 3d ed cd 59 3e
       -0.07305546 0.04297538 0.07019109 0.2126996
0000e0 fa e1 2d be 07 4e 58 be cb bd c5 bd 7e d5 48 3e
       -0.16980734 -0.21123515 -0.09655341 0.19612691
0000f0 77 34 cf 3d 29 07 5e 3e 4b 2d 4b 3d 9b b8 b2 3d
       0.10117429 0.21682419 0.04960374 0.08726617
000100 88 aa 1f 3d 5a 36 5e 3c 11 c0 9a 3d 85 21 3f 3d
       0.03898099 0.013562763 0.07556165 0.046662826
000110 d0 62 ce 3d ac 7d a5 bc 74 81 58 bd 9c 1c d3 ba
       0.10077441 -0.020201527 -0.05285783 -0.0016106549
000120 7b d6 b9 3c 99 46 2b 3d 53 e5 18 bd ed 9b 94 3d
       0.02268528 0.041815374 -0.037328076 0.07256303
000130 17 9e 1e bd 0a 38 0e be bc 53 ba bd 78 02 28 3d
       -0.038724985 -0.13888565 -0.09098002 0.04101798
000140 7c b6 32 3e 81 e6 05 be e2 d5 8d 3d 27 fa b9 3d
       0.17452425 -0.13076212 0.069255605 0.09080916
000150 f7 cf 60 be e8 0a b9 3b f7 29 41 bd 0e f5 66 be
       -0.21954332 0.005647052 -0.04715916 -0.22554418
000160 ff 63 72 bc f4 35 14 3d fa 9d f3 ba 5b 55 ae 3d
       -0.014794349 0.036184266 -0.0018586509 0.08512374
000170 a1 4c 36 3d bc a6 e1 3d 87 f5 fd bd 91 ab ce bd
       0.044506673 0.1101813 -0.12400346 -0.100913174
000180 21 f5 11 3e e6 46 1f 3e 68 3d 14 bd fa 16 36 be
       0.14253666 0.1555439 -0.036191374 -0.17782202
000190 29 af fe 3c 4e c7 d1 bc 0b 0a 96 bd 2f 71 8c bd
       0.031089382 -0.025607731 -0.07326134 -0.068575256
0001a0 44 e8 0a 3d 54 9c 0f 3c bd 25 1a 3d ad d0 0d bc
       0.033912912 0.008765299 0.037633646 -0.008655709
0001b0 b6 d2 e6 3d 78 9c 94 bd 42 2f 62 3d 22 41 dd bd
       0.11270659 -0.072564065 0.05522085 -0.10803439
0001c0 89 fc 44 bd 37 29 1a 3e 50 37 17 be 62 09 71 bd
       -0.0480924 0.15054785 -0.14767194 -0.05884684
0001d0 5b 85 60 3d bd 09 57 3d fa eb f5 3c 59 c9 bd 3d
       0.054814678 0.05249952 0.030019749 0.0926692
0001e0 d2 b9 17 bd 33 d6 36 3d 6b d2 93 bd f7 f0 0b 3d
       -0.037042446 0.04463787 -0.072178684 0.03416535
0001f0 33 0f 53 3d 81 06 cd bd 8d 7e 4b 3d 0e a7 cc bd
       0.051528167 -0.10011006 0.049681235 -0.09992801
000200 7d 49 9e bd 36 f2 28 bd 2c 99 a9 bd 8a 30 1f be
       -0.077288605 -0.041246615 -0.08281168 -0.1554586
000210 b4 9d d2 3d c2 0b ae 3b 4e 68 4d 3e e2 3e fa ba
       0.10283986 0.0053114602 0.2005932 -0.0019092227
000220 52 1a 04 be 15 19 c7 bd 6f db 2f bc f0 1c 4c 3e
       -0.12900665 -0.09721581 -0.010733469 0.19932914
000230 e0 29 2d bd d2 84 57 3d 52 aa aa bc 51 24 0b 3c
       -0.042276263 0.0526169 -0.020833168 0.008492545
000240 b2 87 3a 3e 42 7b 03 3e 69 2b f9 3d b8 fe 19 3e
       0.18215826 0.12839988 0.12166483 0.15038574
000250 09 d5 66 bd d4 59 08 be 47 91 83 bc 60 30 b8 3c
       -0.05635551 -0.13315517 -0.016060485 0.022484004
000260 da 34 dd bd 57 a8 e7 bc f5 8a 07 bb 24 f1 82 3d
       -0.10801096 -0.028278513 -0.002068219 0.0639365
000270 59 e6 bd 3c fa 4a 08 3e 96 9d 22 be 3b af 2d 3e
       0.023181127 0.13309851 -0.15880427 0.16961376
000280 6f f7 ce 3d a5 f7 84 3d c0 46 6a bd a3 df 32 3d
       0.10105788 0.06492547 -0.05719638 0.043670308
000290 6a a6 4e 3e 2e 87 90 bd f4 17 da bd fd b6 8a ba
       0.2018067 -0.070570335 -0.106491 -0.0010583099
0002a0 18 d5 fa 3d 5d b2 c7 3d 85 f1 91 3d 03 b4 b6 3d
       0.12247676 0.09750817 0.07126144 0.08921053
0002b0 f3 59 89 3d 43 0e a4 bd be 9a f6 bd 44 8a 18 be
       0.067066096 -0.08010533 -0.120412335 -0.14896494
0002c0 4e 8a 41 3e c3 22 23 3c a4 9d 08 3d 65 9c ca bb
       0.18900415 0.009957018 0.033353463 -0.0061831945
0002d0 4a 54 93 3d 4d d3 f6 bd 69 89 e6 bd dd 7b c0 bd
       0.07193811 -0.12052021 -0.11256678 -0.09398625
0002e0 6b 99 11 3d 7a 1a 30 3e 15 1d f0 bc 5c 47 e5 bc
       0.0355467 0.171976 -0.029310742 -0.027988128
0002f0 b8 18 ed 3d 54 a2 f1 bd f7 1d 03 3d f5 df f5 bd
       0.1157698 -0.1179854 0.032011 -0.12005607
000300 b5 77 55 3d 29 19 db bd 28 f9 0b bd 28 5a 7c bd
       0.052116115 -0.10698158 -0.03417316 -0.061609417
000310 54 88 1e bd 93 24 9a 3d b2 a0 0a 3e 7d 4d 67 3d
       -0.03870423 0.07526507 0.13537863 0.056470383
000320 e3 4c 43 be 04 80 a0 bd d0 cd 52 be 81 90 03 bd
       -0.19072299 -0.07836917 -0.20586324 -0.03212023
000330 90 d8 2c 3f 16 82 f1 3c c7 ac a2 bf 3b 69 54 3e
       0.6751795 0.029480975 -1.2708977 0.20743267
000340 09 8f 49 bd 2a 85 2a 3e 82 59 76 bd e6 57 9c 3f
       -0.049208675 0.1665236 -0.060143955 1.2214324
000350 a2 98 3a be bc e2 86 3d d1 0c 1c 3d 64 41 d5 3d
       -0.18222287 0.06586215 0.03809816 0.10412863
000360 dd 37 29 3f c1 43 7d bf d2 fd 96 3d 81 0a 6b 3e
       0.66100866 -0.9893151 0.07372631 0.22953226
000370 15 0b 2f bc b3 f4 4e 3d a1 57 09 3d e0 93 53 3e
       -0.0106837945 0.050526332 0.033530835 0.20661879
000380 32 5a 81 3f dd 20 9d bd 71 37 0d be 3a 2a 42 3d
       1.010565 -0.07672284 -0.1379068 0.04740355
000390 d6 b4 58 3e be 76 1f bf f5 24 2a be 3e 4c 4b bf
       0.21162733 -0.6229056 -0.1661566 -0.7941321
0003a0 d8 e4 32 3f f8 dd 1d 3e d9 bc b2 3d 63 f1 5a 3e
       0.6988044 0.15416706 0.08727426 0.21381144
0003b0 23 64 22 be a1 14 1a 3f d1 38 7b bd 44 b6 6e 3f
       -0.15858512 0.6018773 -0.06133348 0.93246865
0003c0 1f b8 03 3e 81 86 31 3e e1 87 49 3d d7 71 a7 bd
       0.12863205 0.17336465 0.04920185 -0.0817601
0003d0 bc fe 12 3e f1 bf 04 bd 9e 33 20 bd 6e 29 0c bc
       0.14354986 -0.032409612 -0.039111726 -0.0085547995
0003e0 15 06 01 3e 5d 0c cb 3d 93 d8 9b 3f 2c 65 a3 bd
       0.12599976 0.099144675 1.2175468 -0.079782814
0003f0 04 de ae bf 5c 7d 66 be 26 db b4 3d 94 b9 09 be
       -1.3661504 -0.22508758 0.08830862 -0.13449699

layers.1.st_net.net.2.bias f4 [64]
000000 a5 60 d1 bc bb 67 e9 38 09 7f a6 3d d9 79 24 3e
       -0.025558779 0.00011129627 0.08129699 0.16062106
000010 64 86 50 3d 36 52 46 bd 7e 7b 17 bd 12 2d dc bd
       0.050909415 -0.048418246 -0.036983006 -0.10750784
000020 b0 2f 60 3c b0 0c 09 3b f1 f4 46 c0 05 97 03 3e
       0.013683245 0.0020912103 -3.1087 0.12850578
000030 da 76 42 3e 4b 5b 7e bb 52 25 3b 3b c3 09 a5 3d
       0.18990651 -0.003881174 0.002855618 0.080585025
000040 2c 51 2d be 4c bd 8b 3d f3 39 02 be e3 a0 dc 3d
       -0.16925496 0.06823215 -0.12717418 0.10772874
000050 34 4b 1f 3e 34 23 0b bd 20 7c 67 3c 02 d1 07 bd
       0.15556031 -0.03396912 0.014128715 -0.03315831
000060 38 90 c0 bd 22 ce 4e bd b9 54 cd bd ad 26 4e 3d
       -0.094025075 -0.050489552 -0.10025925 0.050329853
000070 72 4d b1 3c da 61 21 3d ee 18 24 3d 17 1a e5 be
       0.021643374 0.03939996 0.040062837 -0.44746467
000080 76 ed f9 bd f5 f5 5b 40 d8 56 21 3d e5 2e f0 bc
       -0.12203495 3.436887 0.03938946 -0.029319236
000090 42 d0 7d 3d a8 7f 8d bd ce 02 4d 3c 15 64 2b bd
       0.06196619 -0.06909114 0.012512876 -0.041843493
0000a0 4b 8b 0d bd fd b3 48 3d 70 24 90 bd 14 32 ba bb
       -0.03455667 0.048999775 -0.070382 -0.0056822393
0000b0 d5 30 a6 bc 7a 3d 7f bb bc 2c 9b 3c b5 6a 65 bc
       -0.020286957 -0.0038946555 0.01894223 -0.014002492
0000c0 5b fa d6 3b ea f3 2b 3d 57 f2 b2 bd 40 bd 38 3d
       0.0065606064 0.04198066 -0.08737629 0.045102358
0000d0 8f cd aa 3d 6b 4c d6 bc 48 e5 03 bd 5f d4 83 3e
       0.083399884 -0.026159486 -0.03220108 0.25747964
0000e0 30 e3 1d be b7 89 ee 3d b3 a4 44 3d c1 76 57 bd
       -0.15418696 0.11647361 0.048008632 -0.052603487
0000f0 d8 8a b5 37 15 ba 64 bd b4 17 82 3d 19 14 87 3d
       2.1641536e-05 -0.055841524 0.06352177 0.0659563

layers.1.st_net.net.4.weight f4 [2, 64]
000000 3f ab 38 3c 6c 6c 7b bb 9c c0 eb 3c 48 35 eb 3e
       0.011271297 -0.0038364185 0.028778367 0.45939088
000010 c8 51 c1 3c 20 c4 13 3c db 24 4a 3c 31 cb 57 3b
       0.023598567 0.009018928 0.012337889 0.0032927508
000020 2e 29 8d bc d7 e1 a6 3d 85 6d 65 bf ed bc 42 3e
       -0.01723155 0.08148544 -0.8962024 0.19017382
000030 53 74 17 3f 32 34 a5 bb 31 80 ec 3c 1c 2a 16 bc
       0.5916187 -0.0050416226 0.02886972 -0.009165313
000040 75 2f ab bd ff dd f9 bd e3 10 f4 bd 1b ba 5a 3e
       -0.08358661 -0.122005455 -0.119172834 0.21360056
000050 14 3c dc 3c 57 08 be bb 8e 19 87 3c e9 6b 80 3b
       0.026884116 -0.005799334 0.016491678 0.003919114
000060 57 e2 03 3b a5 b5 87 3d b1 d5 01 be 48 23 16 bc
       0.0020123923 0.06626443 -0.12679173 -0.009163685
000070 2f e5 08 bf 5c 3d 8a 3c b5 2b b6 3e 8b d2 9b be
       -0.53474706 0.016874962 0.3558022 -0.3043407
000080 39 5b 0a be df 9b 51 3f f8 8a 84 3c 35 00 b9 3c
       -0.13511361 0.81878465 0.016179547 0.022583107
000090 2c d7 37 be ab 35 a2 3c 43 c5 5e bc aa 64 66 be
       -0.17953175 0.019800982 -0.013596836 -0.22499338
0000a0 e7 16 ed be 52 dc 06 3d db 5d b6 3b c4 d6 50 bc
       -0.46306536 0.032924958 0.0055653877 -0.012746517
0000b0 6c 4a d6 bc b1 de c9 bc d1 1f 11 3b d4 5c a3 be
       -0.026158534 -0.02464232 0.0022144208 -0.3190676
0000c0 25 34 0a bc 7d 2c 86 bc d2 8d b2 bc 39 8d eb bc
       -0.008435284 -0.016378636 -0.02179614 -0.028753864
0000d0 39 9b f9 3c 79 90 7b bc 25 ac 2b 3c 4f da 96 be
       0.030469524 -0.015354269 0.010478054 -0.2946343
0000e0 a6 d4 07 be 52 78 52 3b 3c a8 16 be 6d cf 85 3a
       -0.13264713 0.0032115174 -0.14712614 0.0010208912
0000f0 61 ed c1 bb f4 13 84 3c bb c9 a3 3c bd 79 d7 3c
       -0.0059181903 0.016122796 0.019993654 0.026303167
000100 aa 5d d3 b9 0b 61 90 3b fc e5 8a 3c 16 22 bf 3c
       -0.0004031484 0.0044060997 0.016955368 0.023331683
000110 ff 39 18 bc f5 d7 13 bc 73 0f 7e bc 43 45 30 3c
       -0.009291171 -0.009023656 -0.015506613 0.010758701
000120 cf 03 d9 3a f8 54 de 3b a4 eb 00 be 83 bd f0 bd
       0.0016556921 0.0067850314 -0.1258989 -0.117548965
000130 2f 4b 2f 3e 30 92 ce b6 a7 54 73 3b 07 8c 01 3c
       0.17118524 -6.156297e-06 0.0037129314 0.00790692
000140 3f 72 0f 3e c9 91 d5 3d 4b e5 16 3e 8e 22 f8 bb
       0.14008425 0.10428197 0.14735906 -0.0075724786
000150 2e c3 e7 bb 07 be d4 3b c8 1a 4d 3b 49 b4 54 bb
       -0.007072828 0.0064923796 0.003129648 -0.003245609
000160 6f ed b7 3a 7b 7e b5 3b 0a da 67 bd 7b dc 83 bc
       0.0014032553 0.0055387593 -0.056604423 -0.016096344
000170 25 14 44 bd ce 45 1f bb 23 5f 60 3c 47 d1 51 3d
       -0.047870774 -0.0024303081 0.013694557 0.051224973
000180 3e 48 ad bc 27 1f 23 3e 56 dc 6d 3b dc 68 35 3a
       -0.021152612 0.15929852 0.003629466 0.00069202273
000190 4f 90 9d bd 26 e4 cc bb 64 66 87 bb dc 55 34 3d
       -0.0769354 -0.0062527834 -0.004132079 0.044027194
0001a0 a2 ab 3f bc 30 2e 3d bb 1a e2 47 ba b2 e6 1d 3c
       -0.011698635 -0.0028866641 -0.00076249393 0.009637522
0001b0 ab 67 9c bb 63 eb ee 3a 2e 11 48 3b 0a 09 b0 bd
       -0.0047731004 0.001822811 0.0030527818 -0.08595474
0001c0 75 4f 96 ba cf 3d 92 ba 18 fa d1 3b f7 1c d2 bd
       -0.0011467772 -0.0011157336 0.0064079873 -0.10259431
0001d0 d6 ea 31 3b ae 33 5b 3b 7d 6c b7 bc be 60 8b 3d
       0.002714803 0.0033447552 -0.022390598 0.068055615
0001e0 e1 5c 9f 3d 65 8f f4 3b 02 88 c9 3d 76 1a 8a 3b
       0.07781387 0.007463383 0.098403946 0.00421458
0001f0 84 a5 f8 3b 05 31 08 bb 95 3e 44 3b da 09 3f 3b
       0.0075880904 -0.002078117 0.0029944528 0.002915016

layers.1.st_net.net.4.bias f4 [2]
000000 1b 87 3c 3f 27 49 1d 3e
       0.73643655 0.15359937

layers.2.mask f4 [2]
000000 00 00 80 3f 00 00 00 00
       1.0 0.0

layers.2.st_net.net.0.weight f4 [64, 1]
000000 7c 7a 17 3e f1 1d ac bf a8 83 7d 3f 4c e2 99 3e
       0.14792818 -1.3446637 0.99029016 0.30055463
000010 cb d0 06 3f 74 e5 11 be 43 52 9f 3e 68 c0 88 3f
       0.5266234 -0.14247686 0.31117448 1.0683718
000020 36 be 43 3f b2 2b 36 3e 1a 3c d7 be fd 0e cf bd
       0.76462114 0.17790106 -0.4203804 -0.10110281
000030 79 7d b0 bf cf 2e 8e 3f 76 6a 0d be da 36 f2 3e
       -1.3788291 1.1108035 -0.13810143 0.47307473
000040 6a c6 16 bf fe 2f 0e bf dd d2 9e 3e 04 44 2b bf
       -0.58896506 -0.5554198 0.3102025 -0.6690066
000050 2b 11 b7 bf 6b 0f cb 39 ef d7 8a 3f 97 08 32 bf
       -1.4302114 0.00038730665 1.0847148 -0.6954436
000060 41 cd 34 bf 4a 83 76 3c fb d8 0e be e4 6b 86 bf
       -0.7062569 0.01504595 -0.13949959 -1.0501676
000070 12 26 51 3f e2 64 7f 3e 51 e9 b2 3c dc d6 82 3f
       0.81698716 0.24940827 0.02183977 1.022182
000080 97 c8 9b bf aa 4e 55 3e fb 69 52 bf 61 ae 30 3f
       -1.217059 0.20830789 -0.82192963 0.6901608
000090 28 2a 20 3e df 08 bc be 6f 46 28 bf 7e 19 46 3f
       0.15641081 -0.36725518 -0.65732473 0.7738265
0000a0 cd eb 81 3f ba 8e 83 bf 33 ae 3f bf 0d 14 33 3d
       1.0150086 -1.0277932 -0.7487518 0.043720294
0000b0 c4 5f ee be fa f0 4f 3e b9 53 9d 3e 74 e4 89 3d
       -0.46557438 0.20306769 0.30727938 0.06733027
0000c0 96 65 df 3e ab 44 28 bf cc 7b d8 be 20 8f 59 be
       0.4363219 -0.6572978 -0.4228195 -0.21246004
0000d0 6b 2d d4 3e 5a 25 9c 3f 91 52 da be 0e 1b c3 bb
       0.414409 1.2198899 -0.42641118 -0.005954153
0000e0 92 94 c0 bf c1 70 38 3f af 69 42 3e 5d b5 88 bf
       -1.504534 0.7204705 0.18985628 -1.0680348
0000f0 a6 fc 81 3f d1 91 83 bd ef 62 07 3d 61 a5 64 bf
       1.0155227 -0.06424297 0.033053335 -0.8931485

layers.2.st_net.net.0.bias f4 [64]
000000 83 5a 75 be 7d 77 6b bf 02 a9 13 bf f9 85 e2 be
       -0.23960309 -0.919792 -0.5767976 -0.44242838
000010 07 b8 81 bf fe b6 f5 3e 0b 45 4e bf e9 a5 ff 3e
       -1.0134286 0.47991174 -0.805741 0.49931267
000020 f4 99 28 bf eb 65 18 bf 56 ae 1e 3e 57 f3 db 3d
       -0.65859914 -0.59530514 0.15496191 0.10739773
000030 7f e6 59 bf 25 aa 1e 3f ca e2 37 3e e9 29 05 3f
       -0.85117334 0.6197837 0.17957607 0.52017075
000040 a8 64 cf bd 68 da 52 be ac 5e 0c 3d 1c 88 b7 3e
       -0.101266205 -0.20591128 0.034269974 0.3584603
000050 4d 81 56 bf 1f be 33 3c e3 01 1e 3f 6b 9d ad 3c
       -0.8379105 0.010970621 0.6172163 0.021193227
000060 59 67 4b bf 89 fc f5 bc 4e 19 5b be f9 07 cc be
       -0.7945457 -0.030027645 -0.21396372 -0.39849833
000070 a1 85 04 bf f9 8f ff be a4 d5 f9 bb 8d b8 13 3f
       -0.517664 -0.4991453 -0.007624345 0.5770348
000080 97 2e 35 bf 30 63 cb be c3 68 fe be cf f6 57 3f
       -0.70774215 -0.39724112 -0.49689302 0.84360975
000090 69 1f 57 be d7 7a 12 3f cc d2 97 3f 56 a7 6a bf
       -0.21008076 0.5721869 1.1861205 -0.91661584
0000a0 7d 2a b0 3e 78 3d 6d 3f 97 ff 45 3f b7 b5 72 3d
       0.34407416 0.9267192 0.77343124 0.059255328
0000b0 ab 70 e0 be dc c5 ab be 97 ce 0b bf 62 e3 a5 be
       -0.4383596 -0.33549392 -0.54612106 -0.32400042
0000c0 cf 67 b1 3d f0 08 46 3f 76 32 5f 3f 5d cb 44 be
       0.08662378 0.7735739 0.8718637 -0.19218202
0000d0 17 05 81 bf 29 3e 39 3f 9b 8a 85 3e b0 77 04 3d
       -1.0079678 0.72360474 0.2608231 0.032340705
0000e0 c3 64 64 bf 83 35 b9 3e 81 92 b4 be 0d 8b 13 bf
       -0.8921625 0.3617364 -0.35268024 -0.5763405
0000f0 f9 5c 44 3f 60 38 ea bc 4f f5 2c bb ea 5b 2d 3f
       0.76704365 -0.028591335 -0.0026391333 0.67718375

layers.2.st_net.net.2.weight f4 [64, 64]
000000 3e 57 10 3f 73 16 a4 3c 42 68 7c be 8b 51 56 3e
       0.5638312 0.020030236 -0.24649146 0.20929544
000010 01 56 f6 3e 89 4c 77 bf 03 86 63 3f 42 3f a7 bd
       0.4811249 -0.9660116 0.8887636 -0.08166362
000020 5c 66 c5 bd c5 2c 80 3f 49 59 17 3e 2c a7 e9 bd
       -0.09638664 1.0013663 0.14780153 -0.11408839
000030 79 a0 8a 3d 15 27 e0 bd cb 5f 77 be 57 4f 27 be
       0.06768889 -0.10944954 -0.24157636 -0.1633886
000040 0e f6 1a 3e ff e8 84 3d 73 cf b8 bc ad e1 55 3e
       0.15132925 0.06489753 -0.022559857 0.2088687
000050 f6 e1 4e 3e 2e 3e 8c 3e 76 44 19 be 8c 54 97 3d
       0.20203385 0.2739119 -0.14967522 0.07389173
000060 b8 b4 21 3e 67 c7 96 3e d5 c7 60 3f 55 09 42 3e
       0.15791595 0.29449007 0.8780492 0.18948872
000070 37 e9 95 be 20 ca 26 3f ed 6c 8e 3e 47 11 a9 bc
       -0.2927949 0.6515217 0.2781748 -0.020638121
000080 77 f5 42 3c 3c 80 3c 3f 60 d6 dd 3d e4 b8 38 be
       0.011899344 0.7363317 0.108319044 -0.1803928
000090 95 a4 f1 3e 0d d1 c2 be 46 c8 8c bd 83 19 7f be
       0.4719588 -0.38050118 -0.068741366 -0.24912076
0000a0 a6 b3 de bd ff 86 34 3e 70 50 00 3e e3 a9 e5 be
       -0.10874109 0.17629622 0.12530684 -0.44856176
0000b0 3f 19 a4 3e 69 7f 1b 3f 4e 4c fb 3e d3 c5 8b 3f
       0.3205051 0.6074129 0.49081653 1.0919746
0000c0 94 68 5f be 61 c3 33 3e 03 58 16 bf f8 ba 87 3e
       -0.21817237 0.17555 -0.58728045 0.26509833
0000d0 a0 21 33 3f 5f d0 3f be 7d d0 00 3e a4 cb e7 be
       0.6997318 -0.18731831 0.12579532 -0.45272553
0000e0 af 7b 6e 3d ed c3 a0 3b 0a 80 23 3f 60 33 02 3e
       0.058223423 0.0049061687 0.6386725 0.1271491
0000f0 b6 95 97 3a a3 7f fb 3e 31 c7 14 bf cf 57 ee 3d
       0.0011565003 0.49120817 -0.5811644 0.11637842
000100 54 48 12 3d 06 e0 81 bc ab 1f e6 3c 66 4d 3b bd
       0.03571351 -0.015853893 0.028091272 -0.04572811
000110 51 68 42 be b5 9e 70 3e 6b 53 25 be c6 07 1b 3d
       -0.18985106 0.23498042 -0.16145103 0.03784921
000120 8b 22 d4 3c 32 c6 03 bd 99 d0 0d 3e 74 90 46 bd
       0.025895378 -0.032171436 0.13849105 -0.048477605
000130 42 8f 26 3d f4 76 73 3d 3f 56 e7 3d c4 f4 7c 3c
       0.040663965 0.059439614 0.11295747 0.015439216
000140 d3 c7 50 bd 21 53 87 3d 9a ac aa 3d 14 a9 16 3e
       -0.050971817 0.066076525 0.083337024 0.14712936
000150 5b eb 84 bd 50 82 83 bd 74 ce 81 3d 1d a0 34 3d
       -0.06490203 -0.064213395 0.06338206 0.04409801
000160 8b cc 5a be b3 3f 72 bd a1 02 4a be 59 82 44 3d
       -0.2136709 -0.05914278 -0.19727565 0.04797587
000170 3e 7a dd bd c7 41 3e be 5c c4 38 bc db df eb bd
       -0.108143315 -0.1857978 -0.0112772845 -0.115173064
000180 63 98 e8 bc 74 d6 7a bc e9 1a 9e 3d 0d 0e d8 3b
       -0.028392976 -0.015309919 0.077199765 0.006593472
000190 f1 be 11 be 3c f0 7d 3d cc e7 56 3c b2 ea 6c 3c
       -0.14232995 0.061996683 0.013116788 0.014460253
0001a0 f4 08 56 bb bf 49 cb 3d 72 8d c0 bc 74 89 b5 3d
       -0.0032659145 0.09926175 -0.023504946 0.08864108
0001b0 57 b5 71 bd d9 98 eb bd 62 1e 3d be 92 71 c8 ba
       -0.05901083 -0.11503763 -0.18468621 -0.0015292636
0001c0 df 07 80 3c 83 ce bb bd ec 63 4a 3e c7 9c e6 bc
       0.015628753 -0.09170248 0.1976468 -0.02815093
0001d0 fb 1f 1d bd 71 02 25 3d 84 8c e1 3d f9 93 71 3b
       -0.038360577 0.04028553 0.11013129 0.003686188
0001e0 40 6b 21 bd 15 f8 b2 3d 33 1d 10 be 86 04 af bd
       -0.039408922 0.08738724 -0.14073639 -0.08545785
0001f0 18 c5 e8 bb f7 3c 3b be 56 b9 b2 3c 62 76 93 3d
       -0.0071035735 -0.18284975 0.02181689 0.07200314
000200 81 75 4f 3d 0b 44 91 3c 90 ab 06 3d 87 83 52 3d
       0.05064917 0.01773264 0.03287846 0.051394965
000210 6f 78 c8 bc ef 7c 09 bd 6e 23 48 bd 11 47 7d 3c
       -0.02447149 -0.03356641 -0.048861913 0.015458838
000220 ad a9 3f bc 17 8c 1c bd 12 86 8b bd 7c dc d9 3d
       -0.011698169 -0.038219538 -0.06812681 0.10637757
000230 7e 54 00 be 1d b3 d8 bd 71 99 9f bd ab 69 c1 bd
       -0.12532231 -0.10581038 -0.077929385 -0.09443983
000240 77 54 03 be 91 77 4b 3d 69 74 ce 3d 6b 1c cd 3a
       -0.1282519 0.049674574 0.10080797 0.0015648728
000250 2b b6 f9 3d d3 75 47 bd dc 98 5a bd 6b e0 06 bc
       0.12192949 -0.04869635 -0.053368434 -0.008232216
000260 a3 ec 88 3d ae c2 2b bc e2 2a e4 bc b7 49 fd bc
       0.0668576 -0.010483427 -0.02785248 -0.030918939
000270 b3 20 88 bd 14 bf c1 3d aa e6 a8 bd 96 b4 a8 3d
       -0.06646862 0.094602734 -0.08247121 0.08237569
000280 1e 01 ad bd cc 71 cd 3d d8 d5 51 bd 04 3b 19 bd
       -0.08447479 0.10031471 -0.051229328 -0.037409797
000290 ff 85 87 3c 36 29 a0 3d 45 80 49 bc 16 04 f9 bd
       0.016543387 0.0782036 -0.012298648 -0.121589825
0002a0 bb 80 4c bd 8f a3 e1 3d 98 d2 82 bd a6 ca dd bc
       -0.049927454 0.110175245 -0.06387824 -0.02707417
0002b0 f0 06 9c bd 66 18 e7 bd 48 e9 94 3d 22 a4 c5 bd
       -0.07618511 -0.112839505 0.07271057 -0.096504465
0002c0 7d dc 01 3d a8 a3 73 bc 45 43 90 3d 3c fb e7 bc
       0.031704415 -0.014870562 0.07044081 -0.02831804
0002d0 a7 8f 06 3d c6 4a e5 bd 05 1a 40 bd ee 87 8b 3d
       0.03285184 -0.111959025 -0.046899814 0.06813036
0002e0 17 38 86 bc c8 1c 12 3c ad 5e 89 3d 16 1d dc bc
       -0.016384168 0.008917995 0.06707511 -0.026869338
0002f0 1f 50 15 3d a4 62 cb 3d 74 ac 74 3d bc 56 cd bc
       0.036453363 0.099309236 0.059734777 -0.025065772
000300 05 b3 82 3f df 23 c6 3d c8 1f a9 3d dc 98 4b 3f
       1.0210882 0.096748106 0.08258015 0.7953012
000310 af 47 37 40 4d 2f c2 be e5 d2 4e 3f e2 40 92 be
       2.8637502 -0.37926713 0.8079055 -0.28565127
000320 58 03 ae 3e 7b c1 14 3f 93 cb 1e be d4 1d a5 be
       0.33986926 0.5810773 -0.15507345 -0.3224932
000330 d2 4f 4b 3e bd ff 60 be 4e 5d eb be 70 8c ef 3b
       0.19854668 -0.21972556 -0.45969623 0.0073104426
000340 de 33 7f bc ee 5f 24 3d c7 5c 92 3c 24 f3 40 be
       -0.015576331 0.04013055 0.017866505 -0.18842751
000350 9f dc e1 3d cb c3 d9 bc 46 4f 9e bd e1 d2 80 3d
       0.11028408 -0.02658262 -0.07729964 0.06290222
000360 47 bf a4 3d 1c 4a 91 3d 6a 6e 28 3e 57 d0 85 3e
       0.08044296 0.07094213 0.1644837 0.26135513
000370 0b 74 4d 3e 02 26 0c 40 b7 b3 a5 3d d6 2d 4b be
       0.20063798 2.1898198 0.080909185 -0.19841704
000380 4d 33 f4 3d a4 3e e4 3f 52 5a 25 bb 2a 0b 54 be
       0.11923847 1.7831616 -0.0025230837 -0.20707384
000390 24 bf 49 3f 3a 70 b4 bf fe e9 29 c0 fe e8 b8 3e
       0.7880728 -1.4096749 -2.6549067 0.3611526
0003a0 39 25 88 be 81 bb b1 be 78 47 b5 be 9a 8b b9 bd
       -0.265909 -0.34713367 -0.3540609 -0.0905983
0003b0 aa c4 6f 3e f6 ea a4 3f 70 bc e6 3f 23 34 a6 3e
       0.23414865 1.2884204 1.8026257 0.32461652
0003c0 ea c7 18 3d f0 fb 12 bf f6 7d 04 c0 bc 95 38 bd
       0.037300028 -0.57415676 -2.070188 -0.045064673
0003d0 ce c4 64 3f 2c 1e 74 be 84 59 f8 bd c8 b3 95 be
       0.893628 -0.23839635 -0.12126449 -0.29238725
0003e0 5e 6b 9b 3e 5a 67 32 be 1b 5c c7 3f 41 19 de 3d
       0.30355352 -0.17422238 1.5574983 0.108446606
0003f0 72 db 71 be f7 7c 11 3d 1f 7c fa bc d2 5b 0a be
       -0.23618868 0.035519566 -0.030576764 -0.13511589

layers.2.st_net.net.2.bias f4 [64]
000000 cd 6b 95 bf 4c 10 f9 3c bd 43 36 bd 3f e4 84 be
       -1.1673523 0.030403279 -0.044498194 -0.25955388
000010 35 49 47 3e 90 bd 23 bb 82 34 9d be c2 fc 9f 3d
       0.1946152 -0.0024984814 -0.30704123 0.078118816
000020 10 6a 02 bd 40 b6 a2 bd 70 3d df 3d 7b ff 1f bd
       -0.03183943 -0.07944918 0.1090039 -0.039062005
000030 e8 50 c2 bc 78 76 19 3e ea 1c 49 3d 06 1f 2b 3d
       -0.02372022 0.14986598 0.04909984 0.041777633
000040 9c 3c 60 3e a5 92 b1 3f ba 20 dc bd d5 b3 cf be
       0.2189812 1.3872877 -0.107484296 -0.40566888
000050 79 33 9f bb 69 66 78 3d 74 08 95 bd 97 3c 69 be
       -0.004858431 0.06064454 -0.07277003 -0.2277702
000060 d9 48 3c 3e 57 ff 96 3e 5c dd 0f 3e 7b 45 0a 3e
       0.18387164 0.29491684 0.14049286 0.13503067
000070 53 fa 77 3d b2 06 18 3d 01 0a 1e be 98 13 89 3f
       0.060541462 0.03711576 -0.15433504 1.0709105
000080 f1 e5 ab 3d 9f 14 25 bd 20 80 d7 bc 60 18 21 be
       0.08393467 -0.04030287 -0.026306212 -0.15731955
000090 e7 a7 dd bd 72 2b 7a be 7d 66 d9 bd e9 ea 60 bd
       -0.108230405 -0.24430636 -0.10615251 -0.054911528
0000a0 4e 80 be bd 77 7f 3e bd 1d df d1 3e 67 50 84 3d
       -0.09301816 -0.04650828 0.40990534 0.06460648
0000b0 a6 6d 2e be 1e 1c 3f bb d9 dc 41 3c 8d 47 79 3d
       -0.17034015 -0.0029161046 0.011832439 0.06085925
0000c0 4b 85 2f bd eb 17 68 3e 07 e0 05 be e4 4b bc bd
       -0.042851727 0.22665374 -0.13073741 -0.091941625
0000d0 4f 5c a2 be d2 9d 68 bf 06 b3 4e 3c e6 81 05 3d
       -0.3171105 -0.90865815 0.012615925 0.032594584
0000e0 21 0b e6 3c 08 7e 83 bf 84 ca 8a 3f b8 9a 27 3c
       0.028081479 -1.0272837 1.0843053 0.010229759
0000f0 70 90 7a bd 6e 92 27 3f 11 eb 49 3f 80 fb 9f bc
       -0.061172903 0.6545781 0.7887431 -0.019529104

layers.2.st_net.net.4.weight f4 [2, 64]
000000 45 82 2c be 61 4f bf 3c d9 c8 9d ba a9 21 80 3d
       -0.16846569 0.02335328 -0.0012038007 0.0625642
000010 89 78 9d bd 02 7b cd bb 13 1b 02 bd 40 94 78 ba
       -0.07689006 -0.006270767 -0.0317641 -0.000948254
000020 80 f4 58 bc 4c 1b 75 ba e9 5f 16 3d 8a 77 4a 3b
       -0.013241887 -0.0009350076 0.03671256 0.0030894005
000030 7b 67 0f bb ce 8a 33 be 25 d0 9a ba 7d b3 6c bb
       -0.0021881748 -0.17533419 -0.00118113 -0.0036117726
000040 cd 0a 0d 3e 48 86 31 3e 35 8e b5 bc 72 d1 05 be
       0.13773651 0.1733638 -0.022162536 -0.13068178
000050 48 49 98 ba 82 12 98 bc e4 8c 6c bc 30 97 3b 3e
       -0.0011618519 -0.018563513 -0.014437888 0.18319392
000060 98 f4 07 bd ca 72 2f be 96 6d a2 3d ea 00 58 3b
       -0.033192247 -0.17133632 0.07931058 0.003295953
000070 7d 58 ba 3b a7 6c 2c be b2 73 94 3c 9d 5a da 3d
       0.005686818 -0.16838323 0.018121574 0.10661814
000080 51 13 4d 3b 48 a5 07 3a 7a 17 5d 3a 28 49 a0 3d
       0.003129203 0.000517447 0.0008433979 0.078264534
000090 58 75 87 bb b2 f0 85 3e 28 1d c7 bd 39 fc 14 bc
       -0.0041338615 0.26160198 -0.09722358 -0.009093338
0000a0 3b ee c5 3c 45 1a 6c bd fb 6d f6 bd 6d af c0 bd
       0.024161449 -0.05764224 -0.12032696 -0.0940846
0000b0 12 34 12 bd 15 b5 81 3b 78 76 09 ba 58 ef f5 b9
       -0.03569419 0.0039583542 -0.00052437885 -0.00046908366
0000c0 e9 3d 50 bb e8 ba 43 bd 18 d4 e6 bc 30 00 17 3c
       -0.0031775183 -0.04778567 -0.028177306 0.009216353
0000d0 32 22 24 bc f6 a0 12 be e6 f8 fc 3a d2 f7 ed 3b
       -0.010017918 -0.14319214 0.0019300252 0.0072622085
0000e0 b7 57 c0 3d 50 5c e9 bd 61 73 0f 3e 80 f3 97 b7
       0.0939173 -0.1139456 0.14008857 -1.8113991e-05
0000f0 e4 42 09 bc 09 ea 4c 3e f8 0e 0d 3e 46 d0 54 ba
       -0.008377764 0.20011152 0.13775241 -0.00081181934
000100 24 2e 1e be a9 58 c0 3b 51 50 31 ba 7f f6 77 be
       -0.15447289 0.005869944 -0.0006763982 -0.24215125
000110 fb 6b 7a bc b8 1d 0a 3b c1 55 42 3e f3 56 a0 39
       -0.015284534 0.0021074843 0.18978025 0.0003058236
000120 fb af ca 3d 62 5c 75 3a 02 79 28 bb 1a 80 bd ba
       0.09896847 0.00093597744 -0.0025706892 -0.0014457733
000130 70 72 df 3a d9 d7 ae 3d 79 f8 99 ba 4c 43 01 3c
       0.0017047655 0.085372634 -0.0011747024 0.00788958
000140 3f 4a 87 3e d9 59 cd 3d 46 5f ff bb 6d df 36 be
       0.26423833 0.10026903 -0.00779334 -0.17858668
000150 44 2b 9e b8 b7 c1 50 3c 60 49 5f 3a 9c 11 4e be
       -7.542086e-05 0.012741498 0.00085177086 -0.20123905
000160 30 87 08 be bc 3c 0d 3e 22 30 80 3e 72 86 e8 b9
       -0.1333282 0.137927 0.25036722 -0.00044350658
000170 dc d9 27 bb b1 bb 72 3d 7a ed e2 3d c2 77 35 3e
       -0.0025612032 0.059261028 0.11080451 0.17721465
000180 da 6f 22 bb e0 e5 05 3a d8 fa 83 39 8a fb d5 be
       -0.0024785907 0.00051078014 0.0002517316 -0.41793472
000190 79 08 10 3a 4b 90 d8 bd 8b 01 a4 be 21 ce fc 3b
       0.00054944266 -0.10574397 -0.32032427 0.007715002
0001a0 16 16 64 3e f7 b5 50 bd 4c b1 a7 3d ad 55 14 be
       0.2227405 -0.050954785 0.081881136 -0.14485808
0001b0 75 31 a8 3a 9a 6f e1 ba c8 86 98 bb f7 71 3c 3a
       0.0012832122 -0.0017199398 -0.004654739 0.0007188613
0001c0 3a d7 01 3b a4 d2 31 3e 8b 23 2c 3e 55 8b 05 bc
       0.0019812123 0.1736551 0.16810434 -0.008150895
0001d0 1a 3d 4f 3e 97 b4 e5 bd 54 45 9d 3a 0a 25 41 bb
       0.20238152 -0.112160854 0.0011998811 -0.002947154
0001e0 3a 99 f2 be 41 9d dc bd 2e 2b 07 3e e4 d8 a4 3a
       -0.47382528 -0.10772181 0.13200065 0.0012576845
0001f0 03 e3 b8 3b 7e 68 1c 3e bc fc 03 3e 25 53 91 ba
       0.0056422963 0.15274236 0.1288938 -0.0011087401

layers.2.st_net.net.4.bias f4 [2]
000000 a5 dd 21 3e 61 cd 3f 3d
       0.15807207 0.046826724

layers.3.mask f4 [2]
000000 00 00 00 00 00 00 80 3f
       0.0 1.0

layers.3.st_net.net.0.weight f4 [64, 1]
000000 55 d4 82 3f 37 6f 38 3c 54 94 15 3e e8 a1 64 bf
       1.0221049 0.011256984 0.14607364 -0.8930955
000010 fa 75 88 be fa e1 95 3f a9 3c 0b bf f0 24 ef be
       -0.2665251 1.1709588 -0.54389435 -0.4670787
000020 86 9c 84 3f fb 70 be 3f 7c 47 88 3f 32 97 77 bf
       1.0360267 1.4878229 1.0646815 -0.9671508
000030 dc c6 96 bf 0d 6f 9a bf 28 0e 9d bf f2 4f 88 39
       -1.1779437 -1.206514 -1.2269945 0.00025999505
000040 dd f6 29 3f 6b a1 7d 3e bd 21 28 be a0 d7 19 be
       0.6639231 0.24768607 -0.1641912 -0.1502366
000050 03 a2 d0 be f3 01 a9 be a5 95 97 bf f8 b9 1d bf
       -0.40748605 -0.330093 -1.1842543 -0.6161189
000060 67 62 65 bf 55 c6 5c bc 7d b9 1a 3f 85 e7 96 3f
       -0.89603275 -0.01347502 0.6043928 1.1789404
000070 75 72 b4 be 34 66 f8 3e cb 12 81 3f 8a 84 01 bf
       -0.35243574 0.48515475 1.008386 -0.50592864
000080 b9 da ce bd 45 c7 91 be f8 e1 34 3d 6f 29 b0 bf
       -0.10100312 -0.28472343 0.044160813 -1.3762645
000090 5e 61 b2 3e 50 87 88 3f b5 e4 e9 bc 1c f2 e5 3a
       0.3483991 1.0666294 -0.028551439 0.0017543468
0000a0 67 4d e5 bd bd 18 b0 3e 4c 98 51 be 34 09 fc 3d
       -0.11196404 0.34393874 -0.20468253 0.12306443
0000b0 8d 7a c9 bf 65 cb bd be 26 05 0e 3f d2 37 97 3c
       -1.5740525 -0.3706924 0.55476606 0.018459234
0000c0 99 9c 96 bd 23 af cc be 3b 8c fd bd 59 63 01 3c
       -0.073540874 -0.3997737 -0.123802625 0.0078972215
0000d0 8c 81 8a bd 21 0e b5 3b d9 49 cf 3e de 18 fe 3d
       -0.0676299 0.005525366 0.4048603 0.12407087
0000e0 c1 c4 e7 bd ac 4d e3 be 5a 4a c3 be 4c ee 1b 3e
       -0.11316825 -0.44395196 -0.38142663 0.15227622
0000f0 f7 da bd bb cf 8c b4 3e 11 e2 11 3e 9e 8b 0d 3e
       -0.005793925 0.35263678 0.14246394 0.13822791
