checkpoints/model_2d.pt (torch, 46427 bytes, 8 tensors)

mlp.0.weight f4 [64, 34]
0.8597309 -0.10087163 0.36707532 0.35265824 0.36373276 0.43284473 0.38530186 0.48226938
0.1938375 0.49646035 0.32310137 0.27816236 0.32828468 0.3116498 0.50718534 0.42715496
0.4173047 0.18304849 -0.2906141 0.0952796 0.10642517 -0.1370778 -0.1130452 0.14350009
-0.0640643 0.038978208 0.016286682 -0.066420525 0.0024827125 -0.09046817 -0.10286362 -0.0005733178
-0.013126835 -0.092823446 -0.527571 0.52405787 -0.30722505 -0.52245057 -0.41872737 -0.54440826
-0.33602393 -0.24244344 -0.5555864 -0.55877966 -0.51634043 -0.5719586 -0.44667765 -0.46899545
-0.4109443 -0.3981687 -0.24167185 -0.45232224 0.1011504 0.17701662 0.1863177 -0.1064626
-0.13440186 0.024831187 0.045722704 -0.0062618693 -0.047512434 -0.05426782 -0.045548342 0.0877962
0.024681803 0.021898258 0.042886913 0.0033263077 -0.29508814 -0.7871156 -0.7412848 -0.74927944
-0.83270717 -0.699654 -0.6444084 -0.8224429 -0.6935156 -0.6742011 -0.93314147 -0.6699635
-0.61451817 -0.77506304 -0.79940253 -0.77975243 -0.65033543 -0.6283527 0.32229456 0.21105877
-0.021173261 0.17983834 -0.008823428 -0.045098398 0.069570914 0.19785234 -0.0083512645 0.17960413
0.112541676 0.10683508 0.1690506 0.23611975 0.005297438 0.04841616 -0.5684316 0.6158547
0.027843582 -0.07084245 -0.06711919 -0.13641968 -0.21432884 -0.2360494 -0.15948506 -0.130909
-0.046534564 -0.13166343 -0.2067179 -0.06505444 0.008322504 -0.050728288 0.03959294 -0.04558031
0.15631211 -0.12632135 -0.04357464 0.040356144 -0.10086387 0.0948513 0.055995587 0.11474098
-0.0206114 -0.1972095 -0.16256408 0.051411714 -0.05556742 -0.10667487 -0.08127421 0.09116105
0.38027638 1.1673056 0.1921817 0.007832325 -0.083184175 0.006179485 0.08134557 0.1270333
0.19098279 0.008750693 0.18812075 0.17646438 -0.000592844 -0.06354319 0.057116278 -0.041426882
-0.107670784 -0.06449185 -0.1513649 -0.2059929 -0.24875858 0.06431336 -0.20990674 0.009204221
-0.06425016 0.0494733 -0.029728508 -0.05976764 -0.004587153 -0.124599315 0.020439465 0.010240704
-0.15131643 -0.052277233 0.97717273 -0.091212876 -0.45229465 -0.31507334 -0.50367475 -0.5400761
-0.42932585 -0.4924667 -0.23748145 -0.2368265 -0.5559642 -0.3713623 -0.49065602 -0.33415434
-0.27081183 -0.29951602 -0.5126024 -0.28100228 0.33823633 0.19745713 0.26644996 0.15395623
-0.06871611 0.24389963 -0.052452646 0.08157763 0.16975763 -0.04876592 -0.05251905 -0.055574894
-0.014886606 0.029166158 -0.049320325 0.17545557 -0.23680873 -0.23074646 0.6060587 0.7272414
0.6656893 0.7921534 0.844125 0.573884 0.8747007 0.87155086 0.561842 0.6401398
0.67384213 0.7307197 0.8413773 0.6337198 0.6529341 0.83472586 -0.36955732 -0.112073295
-0.19705108 -0.105638325 -0.07837933 -0.0020777928 0.025429321 -0.1258555 -0.1475117 0.1457752
-0.11522438 0.12134014 -0.010203825 -0.087445095 0.07954519 -0.13786373 0.18615086 -0.7388267
-0.1763967 -0.26789904 -0.12890072 -0.056910984 -0.028829364 -0.14005372 -0.14650437 -0.31604347
-0.27982262 -0.31094557 -0.286696 -0.28384933 -0.19916932 -0.27193654 -0.038213663 -0.22294457
00000000: 5317 5c3f c995 cebd 4cf1 bb3e 9f8f b43e
00000010: 2e3b ba3e d39d dd3e 4946 c53e 03ec f63e
00000020: 567d 463e 0d30 fe3e 8b6d a53e 4c6b 8e3e
00000030: ee14 a83e 9090 9f3e e6d6 013f 0eb4 da3e
00000040: f6a8 d53e 1071 3b3e 5fcb 94be f321 c33d
00000050: 71f5 d93d 1f5e 0cbe 3e84 e7bd b0f1 123e
00000060: 2534 83bd 9da7 1f3d a66b 853c 7c07 88bd
00000070: 01b5 223b 6047 b9bd 29aa d2bd b54a 16ba
00000080: f011 57bc 381a bebd e50e 07bf a828 063f
00000090: 9a4c 9dbe 52bf 05bf 6f63 d6be 575e 0bbf
000000a0: 540b acbe 1843 78be e93a 0ebf 2f0c 0fbf
000000b0: e32e 04bf e16b 12bf efb2 e4be 2c20 f0be
000000c0: 4b67 d2be c5dc cbbe d378 77be c896 e7be
000000d0: f127 cf3d d843 353e 11ca 3e3e 1009 dabd
000000e0: a4a0 09be c66a cb3c bb47 3b3d 5e30 cdbb
000000f0: 669c 42bd ef47 5ebd e690 3abd 7ece b33d
00000100: 7e31 ca3c fa63 b33c 30aa 2f3d 2ffe 593b
00000110: cb15 97be 6880 49bf d7c4 3dbf c7d0 3fbf
00000120: 4c2c 55bf 861c 33bf f3f7 24bf 9e8b 52bf
00000130: 3d8a 31bf 7198 2cbf 5ce2 6ebf ba82 2bbf
00000140: 1051 1dbf 886a 46bf a5a5 4cbf db9d 47bf
00000150: 627c 26bf b9db 20bf cb03 a53e ca1f 583e
00000160: 8c73 adbc 8b27 383e 2490 10bc 19b9 38bd
00000170: 327b 8e3d ce99 4a3e bed3 08bc 25ea 373e
00000180: 407c e63d 5acc da3d 9a1b 2d3e 60c9 713e
00000190: 2196 ad3b 0650 463d bc84 11bf a7a8 1d3f
000001a0: 3918 e43c d915 91bd c975 89bd 9ab1 0bbe
000001b0: 0579 5bbe efb6 71be 0d50 23be 020d 06be
000001c0: 079b 3ebd c7d2 06be dbad 53be 433b 85bd
000001d0: 1d5b 083c 77c8 4fbd 352c 223d 6bb2 3abd
000001e0: 4810 203e 625a 01be 527b 32bd 7c4c 253d
000001f0: b791 cebd 6641 c23d a15b 653d 52fd ea3d
00000200: 3dd9 a8bc 4af1 49be 3377 26be 1795 523d
00000210: aa9a 63bd 5b78 dabd 1873 a6bd a5b2 ba3d
00000220: 96b3 c23e 456a 953f 48cb 443e 2753 003c
00000230: 775c aabd 477d ca3b 8298 a63d 0415 023e
00000240: fe90 433e 115f 0f3c baa2 403e 14b3 343e
00000250: 1669 1bba ef22 82bd c2f2 693d 3caf 29bd
00000260: 8082 dcbd 4e14 84bd 66ff 1abe ceef 52be
00000270: 92ba 7ebe b9b6 833d cbf1 56be 4dcd 163c
00000280: 9695 83bd 84a4 4a3d 3389 f3bc eace 74bd
00000290: d44f 96bb ed2d ffbd aa70 a73c a0c8 273c
000002a0: b2f2 1abe a720 56bd fe27 7a3f d1cd babd
000002b0: 2a93 e7be 4b51 a1be d4f0 00bf 6d42 0abf
000002c0: 99d0 dbbe 9824 fcbe 562e 73be a582 72be
000002d0: ab53 0ebf 3323 bebe 4437 fbbe 4716 abbe
000002e0: d9a7 8abe 2a5a 99be e939 03bf 88df 8fbe
000002f0: 502d ad3e 3432 4a3e 216c 883e b4a6 1d3e
00000300: 08bb 8cbd d3c0 793e 96d8 56bd 2c12 a73d
00000310: f2d4 2d3e c6be 47bd 371e 57bd 80a2 63bd
00000320: f3e6 73bc deed ee3c 1c04 4abd a0aa 333e
00000330: fd7d 72be cd48 6cbe aa26 1b3f 7e2c 3a3f
00000340: 9d6a 2a3f 91ca 4a3f 9318 583f 10ea 123f
00000350: 63ec 5f3f f51d 5f3f e1d4 0f3f 34e0 233f
00000360: eb80 2c3f 7210 3b3f 8164 573f 763b 223f
00000370: b026 273f 98b0 553f 9e36 bdbe af86 e5bd
00000380: c2c7 49be e858 d8bd 5885 a0bd 942b 08bb
00000390: 2751 d03c 44e0 00be 4f0d 17be 1846 153e
000003a0: c2fa ebbd 2e81 f83d f22d 27bc 6a16 b3bd
000003b0: 97e8 a23d 262c 0dbe 559e 3e3e bf23 3dbf
000003c0: 56a1 34be 102a 89be 8dfe 03be 7e1b 69bd
000003d0: 8f2b ecbc 3e6a 0fbe 3e05 16be 73d0 a1be
000003e0: e944 8fbe 4234 9fbe d1c9 92be b354 91be
000003f0: 0bf3 4bbe 443b 8bbe ee85 1cbd 954b 64be

mlp.0.bias f4 [64]
-0.06268119 -0.021369722 0.119055584 -0.048331518 -0.001126919 -0.06882149 0.09839971 0.03773607
0.081411004 -0.046797313 0.14172821 0.041111536 0.17362727 -0.12325171 0.14116928 0.17161208
0.031708665 -0.03907514 0.12859428 -0.13175488 0.13346544 -0.019580146 0.08904979 0.059296012
-0.15742785 -0.10904078 -0.083546355 0.06444843 0.15726075 0.16422468 -0.1769156 0.012109946
0.05940395 0.06493283 -0.05427915 0.11520267 -0.12713628 0.16362001 0.18564017 -0.1713312
-0.063733466 0.06721842 -0.11959994 0.056826252 0.058375306 0.058284525 0.17957722 0.0771645
0.24762039 0.124929175 0.037919372 -0.14917421 0.109890126 0.092210874 -0.20192793 -0.14352894
-0.04726307 -0.046666153 -0.007979487 -0.11559285 -0.14908601 0.11738395 -0.11972268 0.009153272
00000000: ff5e 80bd 8e0f afbc 6ad3 f33d 45f7 45bd
00000010: 21b5 93ba 48f2 8cbd ca85 c93d 2391 1a3d
00000020: d0ba a63d 8aae 3fbd 3321 113e 9264 283d
00000030: 59cb 313e 646b fcbd ae8e 103e 14bb 2f3e
00000040: f2e0 013d 410d 20bd 38ae 033e c0ea 06be
00000050: 2aab 083e 8b66 a0bc bc5f b63d 60e0 723d
00000060: c434 21be c650 dfbd 5a1a abbd 8afd 833d
00000070: f608 213e 842a 283e 5d29 35be cc68 463c
00000080: 8e51 733d 81fb 843d d053 5ebd 61ef eb3d
00000090: 0330 02be 018c 273e 7518 3e3e 7271 2fbe
000000a0: b186 82bd d0a9 893d d0f0 f4bd a5c2 683d
000000b0: f21a 6f3d c1bb 6e3d 17e3 373e 6c08 9e3d
000000c0: 3390 7d3e deda ff3d 5851 1b3d 20c1 18be
000000d0: 130e e13d 0ed9 bc3d 32c6 4ebe 40f9 12be
000000e0: ec96 41bd 0225 3fbd 65bc 02bc f2bb ecbd
000000f0: 01aa 18be ff66 f03d 2a31 f5bd 9bf7 153c

mlp.2.weight f4 [64, 64]
-0.1579728 0.08644403 -1.1942817 0.30167452 0.13805626 -0.95699507 0.14251447 -0.039491672
0.1339127 -1.2964168 -0.5335108 -0.047923803 -0.7923353 -0.38877144 -0.61428857 -0.05769532
0.11909054 -0.30252048 0.4637419 0.34801996 0.03823219 -0.05749477 0.070768416 0.10602566
0.30136168 -0.27239457 0.34569302 -0.8330744 -1.0041112 0.35386634 -0.04010381 -0.12805943
0.3590821 -0.21173792 0.2807102 -0.07433401 -0.7742971 0.32315323 -0.34753793 -0.21221106
-0.49576113 0.10968437 -0.52235353 0.10943236 -0.0952314 0.11133328 -0.48191857 -1.0200263
-0.067832574 -0.28515756 -0.51598465 0.29525384 -0.14238843 -0.5389545 -0.1019542 0.26321003
0.037165083 -0.56050897 0.17435758 0.18909237 -0.502516 0.016047973 0.34300354 -0.20380516
-0.011874649 -0.15147297 0.024782147 -0.09351981 0.14108825 -0.22432055 -0.1370607 0.0008929003
0.09788735 -0.19988838 -0.026467111 -0.11850837 0.0029248535 0.016399711 -0.14919147 -0.47491375
-0.18788192 -0.20601606 0.112192936 0.0061944434 -0.14178984 0.13849936 -0.047308724 -0.0687385
0.08879944 -0.014289576 -0.06037334 -0.365077 -0.26563647 0.09143588 -0.20657057 -0.07110757
0.081097215 -0.10853123 -0.07129772 0.10731418 -0.23695026 0.049759533 -0.13219918 -0.1523476
-0.08499722 0.06982162 -0.08519833 0.15485485 0.13026626 -0.10191154 -0.16210724 -0.26734614
-0.021873059 -0.3974601 -0.136362 0.1912585 -0.14655796 0.03259595 0.0005972006 0.09136949
-0.17692778 -0.20032316 0.06146847 0.19567706 -0.12030472 0.076386094 0.02573352 -0.33837083
0.042004377 0.0036433714 -1.0733258 0.21055564 0.09986202 -0.6171213 0.09918654 -0.0051149847
0.15695328 -0.9629546 -0.4899981 0.04790812 -0.76420474 0.028178444 -0.28988495 0.056538735
0.012384324 -0.242655 0.43893644 0.24512018 0.038175724 0.2833019 0.21444587 0.27654877
0.2186257 -0.22252737 0.18897793 -0.37480417 -0.7199882 0.2837586 -0.064404845 0.044742227
0.35804102 0.018649034 0.22989042 0.13514456 -0.43780538 0.20123765 -0.27303138 -0.25516063
-0.40882793 0.0597663 -0.43180972 0.25210515 -0.14042144 0.10522166 -0.07892725 -0.6127946
-0.08444559 -0.036867086 -0.29873663 0.18173675 -0.110119656 -0.633819 0.017063547 0.12938046
-0.021425255 -0.28021023 0.31228057 0.19702913 -0.3496266 0.048420433 0.3705787 -0.06925735
-0.13978681 0.018341819 -0.15466283 0.0038827532 -0.2361305 -0.20662718 -0.18423401 0.09287842
-0.28154555 -0.019401222 0.09904568 0.0011598218 0.07937869 -0.24240012 -0.28904626 -0.07267973
-0.10830177 -0.13122386 -0.034711417 -0.17174082 -0.15843306 -0.10859476 -0.35984337 -0.007042006
-0.12853584 -0.14044693 -0.17571019 -0.2183812 -0.1067223 -0.09586404 -0.57527834 -0.304635
0.02681444 -0.47241208 -0.122054264 -0.16047369 -0.15857752 0.028831884 -0.10824918 -0.24043614
-0.32821912 -0.04920791 0.12195392 -0.25195006 0.044485692 0.02160553 -0.37676495 -0.2873676
-0.063135535 -0.4097655 0.0034190807 0.07951762 -0.0688697 0.02073939 -0.48952752 -0.07178313
-0.14520855 -0.23978826 -0.0012929688 -0.14735356 -0.24185236 -0.13657723 0.017869093 -0.42694223
00000000: 9fc3 21be 9109 b13d 39de 98bf 1575 9a3e
00000010: 9f5e 0d3e a1fd 74bf 50ef 113e 05c2 21bd
00000020: 6920 093e fcf0 a5bf 2a94 08bf c04b 44bd
00000030: 7cd6 4abf 0d0d c7be 0442 1dbf ee51 6cbd
00000040: bee5 f33d f7e3 9abe 946f ed3e ac2f b23e
00000050: 5b99 1c3d a37f 6bbd 08ef 903d fb23 d93d
00000060: 144c 9a3e 4d77 8bbe adfe b03e 5d44 55bf
00000070: b786 80bf f82d b53e e543 24bd 0322 03be
00000080: 9cd9 b73e d3d1 58be 3fb9 8f3e 6e3c 98bd
00000090: 5638 46bf 5774 a53e 7ef0 b1be db4d 59be
000000a0: 67d4 fdbe 33a2 e03d f6b8 05bf 131e e03d
000000b0: ae08 c3bd b402 e43d 08be f6be 3990 82bf
000000c0: ceeb 8abd 2c00 92be 9217 04bf 832b 973e
000000d0: 46ce 11be ecf8 09bf 5dcd d0bd 77c3 863e
000000e0: 6a3a 183d 847d 0fbf cb8a 323e 6ea1 413e
000000f0: e3a4 00bf 0a77 833c 299e af3e 4db2 50be
00000100: e38d 42bc bb1b 1bbe ee03 cb3c 5087 bfbd
00000110: 7079 103e 49b4 65be a459 0cbe 8611 6a3a
00000120: 2a79 c83d 8aaf 4cbe 8ed1 d8bc 84b4 f2bd
00000130: e6ae 3f3b b058 863c a6c5 18be e527 f3be
00000140: 1e64 40be e0f5 52be 69c5 e53d c2fa ca3b
00000150: 5b31 11be c7d2 0d3e cbc6 41bd c5c6 8cbd
00000160: 7bdc b53d d31e 6abc 094a 77bd 5feb babe
00000170: 8101 88be bc42 bb3d 3c87 53be d8a0 91bd
00000180: 4c16 a63d 9f45 debd 8a04 92bd 89c7 db3d
00000190: 17a3 72be a7d0 4b3d 395f 07be 0201 1cbe
000001a0: 0613 aebd a3fe 8e3d 767c aebd 4592 1e3e
000001b0: 8564 053e ffb6 d0bd 71ff 25be 98e1 88be
000001c0: 212f b3bc e47f cbbe 7ba2 0bbe 45d9 433e
000001d0: 4a13 16be 5583 053d 748d 1c3a ed1f bb3d
000001e0: 8e2c 35be 8421 4dbe 5dc6 7b3d 915f 483e
000001f0: 5262 f6bd 5070 9c3d 1acf d23c f13e adbe
00000200: c80c 2c3d a1c5 6e3b bd62 89bf e69b 573e
00000210: 7584 cc3d a9fb 1dbf 5022 cb3d 9a9b a7bb
00000220: 5cb8 203e 3184 76bf 08e1 fabe 4e3b 443d
00000230: eca2 43bf 7bd6 e63c cd6b 94be 2995 673d
00000240: 9fe7 4a3c 8d7a 78be 47bc e03e c900 7b3e
00000250: 265e 1c3d f20c 913e b397 5b3e cd97 8d3e
00000260: 6adf 5f3e 37de 63be 6e83 413e 55e6 bfbe
00000270: 2651 38bf cf48 913e b0e6 83bd a043 373d
00000280: 2751 b73e dcc5 983c 6568 6b3e 5663 0a3e
00000290: 0728 e0be 3e11 4e3e c5ca 8bbe 6aa4 82be
000002a0: e551 d1be 82cd 743d 2a16 ddbe ed13 813e
000002b0: a3ca 0fbe 747e d73d 9ca4 a1bd 1be0 1cbf
000002c0: cff1 acbd f101 17bd 02f4 98be 3319 3a3e
000002d0: 6a86 e1bd f641 22bf dac8 8b3c 507c 043e
000002e0: 0484 afbc b777 8fbe 3de3 9f3e 01c2 493e
000002f0: 4202 b3be 8154 463d 7ebc bd3e ccd6 8dbd
00000300: 4624 0fbe 9541 963c ef5f 1ebe ca75 7e3b
00000310: 32cc 71be 1396 53be d7a7 3cbe 0b37 be3d
00000320: bd26 90be 50ef 9ebc 76d8 ca3d 2905 983a
00000330: 4b91 a23d bd37 78be dffd 93be 1cd9 94bd
00000340: 52cd ddbd 8c5f 06be 8f2d 0ebd d3dc 2fbe
00000350: 473c 22be ee66 debd 643d b8be a1c0 e6bb
00000360: e69e 03be 52d1 0fbe 5fed 33be 529f 5fbe
00000370: 3991 dabd 5e54 c4bd 7145 13bf 1ef9 9bbe
00000380: f5a9 db3c ffdf f1be 96f7 f9bd 3753 24be
00000390: 2562 22be d830 ec3c bfb1 ddbd e434 76be
000003a0: 560c a8be 3c8e 49bd fac2 f93d 99ff 80be
000003b0: a136 363d 15fe b03c 56e7 c0be d921 93be
000003c0: 344d 81bd c9cc d1be a812 603b 22da a23d
000003d0: 8f0b 8dbd a7e5 a93c 5aa3 fabe 0903 93bd
000003e0: 8db1 14be 0e8b 75be d578 a9ba dae3 16be
000003f0: 25a8 77be e7da 0bbe 3462 923c 2c98 dabe

mlp.2.bias f4 [64]
-0.3107157 -0.097690925 -0.28564 -0.17719735 -0.08331321 -0.34159818 -0.20440246 0.020175224
0.031768348 0.11291835 0.064764865 -0.08124545 0.13053854 -0.080137156 0.056897737 0.056766186
0.11037684 -0.01100494 -0.08060006 -0.40898913 -0.14047447 -0.17512655 0.003179047 -0.1356651
-0.21034299 0.0077513265 -0.0357357 -0.21773508 -0.0799255 -0.17113918 -0.0478489 -0.11008335
-0.20522375 -0.032270387 -0.13996297 0.022428863 -0.057887793 -0.09938539 0.1074348 -0.017892534
-0.11717877 -0.35242373 0.04215714 0.09784498 -0.026650308 -0.16430749 -0.060053576 -0.1863536
0.002921087 -0.037591998 0.062154494 -0.25554517 0.031223493 -0.17415005 -0.08970291 -0.25135547
-0.1192777 -0.20266894 0.18572868 -0.035805386 -0.061750095 -0.18044297 0.011195424 -0.22643904
00000000: 2116 9fbe 2e12 c8bd 683f 92be 3973 35be
00000010: 1ea0 aabd f5e5 aebe e14e 51be 8346 a53c
00000020: 871f 023d bc41 e73d 71a3 843d 0464 a6bd
00000030: e5ab 053e f31e a4bd 9a0d 693d a983 683d
00000040: 410d e23d 104e 34bc a511 a5bd 0667 d1be
00000050: 8ad8 0fbe 6054 33be 8f57 503b cbeb 0abe
00000060: 2764 57be d7fe fd3b 995f 12bd f2f5 5ebe
00000070: fbaf a3bd 1c3f 2fbe 35fd 43bd 6173 e1bd
00000080: 2d26 52be f42d 04bd 7452 0fbe bcbc b73c
00000090: c01b 6dbd 918a cbbd c706 dc3d 5d93 92bc
000000a0: 6cfb efbd e270 b4be f7ac 2c3d f362 c83d
000000b0: bf51 dabc 3940 28be bdfa 75bd 7ad3 3ebe
000000c0: b56f 3f3b 11fa 19bd b695 7e3d d1d6 82be
000000d0: 69c8 ff3c 6454 32be 29b6 b7bd aab1 80be
000000e0: de47 f4bd 7288 4fbe a92f 3e3e aba8 12bd
000000f0: abed 7cbd 0bc6 38be 036d 373c a3df 67be

mlp.4.weight f4 [64, 64]
-0.15256272 0.13817638 -0.052357476 0.051281895 0.13287263 -0.4989248 0.04199387 0.08759835
0.11942661 -0.030254103 0.011933517 -0.03310017 -0.20094341 0.051902354 -0.047004104 0.10910092
-0.14880183 -0.17357521 0.05626162 -0.43446264 -0.027100014 -0.082103916 0.045333322 -0.05304755
0.02156007 -0.028692856 -0.04487392 -0.47095704 0.12127603 0.04113939 -0.2761607 -0.044608004
-0.10300585 -0.037148938 0.044124372 0.06667992 0.09512462 0.044661876 -0.08516331 -0.08908424
-0.19646838 -0.7724772 -0.46214017 -0.15691712 -0.096182525 -0.24495685 -0.00567435 -0.088193886
0.038432542 0.05730329 0.03185826 -0.3542954 0.037443668 0.16733375 0.19673836 -0.0189335
0.078269616 -0.01644736 0.024231652 -0.076647304 0.021191008 -0.026997628 -0.008225729 0.081400804
-0.13997671 0.14719982 0.09922189 0.06736107 -0.14720686 0.0050569605 -0.0058341245 0.056746025
0.0082704555 -0.021335931 0.030968156 -0.07668817 0.09046461 -0.098149024 0.079175875 -0.058911495
-0.053660825 0.029996188 -0.11469885 -0.26264957 -0.0992968 -0.07712852 -0.013305294 0.13503411
-0.04204914 -0.021082561 0.04399207 0.007959358 -0.007819879 0.14331076 -0.045331758 -0.0932063
-0.04414892 -0.029468838 0.0024694246 -0.0526362 0.04737844 -0.04257544 0.071079634 0.05645817
-0.018304808 0.09780103 -0.011623757 -0.08706696 0.022501303 0.084587574 0.11132033 -0.019092405
0.07215331 0.14056432 0.007639336 -0.10278479 -0.011313405 0.01095182 -0.018307518 -0.12335592
0.007871026 -0.11104346 0.007989102 -0.050697207 -0.019354103 0.07470547 -0.0364518 -0.08088108
0.20533043 0.11299559 0.07639974 0.13006176 0.095627114 -0.9420175 -0.18479562 -0.1645398
0.030114526 0.19325647 -0.31006008 0.044707038 0.13073595 0.013303615 -0.014019868 0.040769495
0.09936312 0.17628568 0.23080948 -0.23593889 -0.12976274 -0.106297605 -0.17232406 -0.051055405
-0.23871404 0.054827657 -0.015577434 -1.2002372 -0.1984924 0.1410884 0.2427719 0.14301148
-0.09650874 -0.11852944 0.099493764 0.023966037 0.24272773 -0.113209344 0.084529705 -0.27568963
-0.64985603 -0.8783632 -0.48734996 -0.07363275 -0.010392768 0.33719236 -0.1410492 -0.12587482
-0.16569267 0.0141349 0.28049868 0.0008270381 -0.07637489 -0.105411656 -0.16886616 0.0819031
0.1182842 -0.29493508 -0.0066149277 -0.07805454 0.18536016 0.044200487 0.016020037 -0.063743465
0.09559693 0.2881689 0.083849825 0.04293664 -0.01300979 -0.4360772 -0.12504843 0.06241658
0.06781975 0.11517359 -0.39082432 -0.01865937 -0.032036535 0.14231353 0.029277982 0.08680911
0.061426908 0.08607613 0.35095984 -0.46634537 -0.03848546 0.011819344 -0.2087463 -0.40686405
-0.30972725 0.15761553 0.02572385 -0.894453 0.00057656603 0.33490226 0.11650568 0.2945776
-0.33176893 0.05008417 0.43305984 -0.033515323 0.1496124 -0.17444538 0.023935264 -0.14326452
-0.31797266 -0.7649259 -0.6285727 -0.11814316 0.064999126 0.30798388 -0.0013526516 -0.18460257
-0.07931701 0.37363115 0.17792189 -0.12323048 0.009290696 -0.029519493 0.053306725 0.11491925
0.2547549 -0.320656 0.03749808 0.09109356 0.13345395 -0.048018884 -0.023803165 -0.10532101
00000000: 6739 1cbe 1c7e 0d3e cb74 56bd f70c 523d
00000010: c30f 083e 1273 ffbe c401 2c3d c466 b33d
00000020: f095 f43d 74d7 f7bc cc84 433c 0b94 07bd
00000030: 1cc4 4dbe 9097 543d 6087 40bd 4e70 df3d
00000040: 825f 18be b3bd 31be 9672 663d e371 debe
00000050: d900 debc 1926 a8bd 6faf 393d 6348 59bd
00000060: be9e b03c 480d ebbc b7cd 37bd 4821 f1be
00000070: 915f f83d c781 283d ef64 8dbe e2b6 36bd
00000080: bbf4 d2bd 7c29 18bd c2bb 343d 7b8f 883d
00000090: b2d0 c23d 5fef 363d 1a6a aebd cc71 b6bd
000000a0: 022f 49be 11c1 45bf a39d ecbe e2ae 20be
000000b0: 58fb c4bd f8d5 7abe e6ef b9bb ff9e b4bd
000000c0: 716b 1d3d dbb6 6a3d cf7d 023d 3566 b5be
000000d0: 885e 193d 8a59 2b3e c875 493e 6d1a 9bbc
000000e0: d24b a03d 9dbc 86bc 7581 c63c 43f9 9cbd
000000f0: c498 ad3c 212a ddbc 35c5 06bc 77b5 a63d
00000100: 0e56 0fbe 8dbb 163e d934 cb3d 9af4 893d
00000110: 65bd 16be dcb4 a53b 2f2c bfbb 856e 683d
00000120: ce80 073c b1c8 aebc eeb0 fd3c b00e 9dbd
00000130: 8245 b93d 5b02 c9bd f626 a23d 2e4d 71bd
00000140: 74cb 5bbd 91ba f53c 3be7 eabd 017a 86be
00000150: 1f5c cbbd 8ff5 9dbd 73fe 59bc 6246 0a3e
00000160: b83b 2cbd 56b5 acbc 0731 343d f867 023c
00000170: f31e 00bc 0ec0 123e cbad 39bd f2e2 bebd
00000180: 7fd5 34bd a268 f1bc 12d6 213b 0e99 57bd
00000190: e50f 423d 9663 2ebd 3392 913d af40 673d
000001a0: f7f3 95bc e84b c83d 9271 3ebc 2a50 b2bd
000001b0: a754 b83c 403c ad3d eafb e33d ad67 9cbc
000001c0: 1dc5 933d 18f0 0f3e 6553 fa3b d580 d2bd
000001d0: dc5b 39bc 436f 333c a6f9 95bc 07a2 fcbd
000001e0: 7af5 003c c16a e3bd b9e4 023c e0a7 4fbd
000001f0: 7f8c 9ebc 2eff 983d 7c4e 15bd fba4 a5bd
00000200: 2442 523e 3b6a e73d 7877 9c3d e92e 053e
00000210: 26d8 c33d 0f28 71bf 103b 3dbe 1f7d 28be
00000220: bdb2 f63c 06e5 453e 32c0 9ebe ba1e 373d
00000230: a5df 053e 68f7 593c 97b3 65bc eafd 263d
00000240: e47e cb3d 3c84 343e 5259 6c3e f799 71be
00000250: 86e0 04be 8fb2 d9bd b875 30be 791f 51bd
00000260: 7471 74be f792 603d 7e38 7fbc 5fa1 99bf
00000270: 9741 4bbe 7a79 103e 3299 783e 9a71 123e
00000280: 60a6 c5bd 90bf f2bd 63c3 cb3d 6c54 c43c
00000290: 9e8d 783e 4dda e7bd e91d ad3d 3127 8dbe
000002a0: f75c 26bf 69dc 60bf ef85 f9be c4cc 96bd
000002b0: 6e46 2abc 7aa4 ac3e 346f 10be 54e5 00be
000002c0: 57ab 29be 1196 673c 869d 8f3e 96cd 583a
000002d0: 706a 9cbd 11e2 d7bd 40eb 2cbe d0bc a73d
000002e0: fd3e f23d bb01 97be 09c2 d8bb 0fdb 9fbd
000002f0: 0ecf 3d3e 920b 353d 743c 833c ef8b 82bd
00000300: 53c8 c33d e08a 933e 75b9 ab3d 55de 2f3d
00000310: 0427 55bc 8345 dfbe b20c 00be 87a8 7f3d
00000320: 15e5 8a3d 22e0 eb3d 201a c8be 89db 98bc
00000330: be38 03bd a3ba 113e 61d8 ef3c fac8 b13d
00000340: c89a 7b3d af48 b03d 02b1 b33e d2c4 eebe
00000350: eea2 1dbd eca5 413c 97c1 55be 7c50 d0be
00000360: 9294 9ebe f765 213e d3ba d23c dffa 64bf
00000370: b124 173a 4f78 ab3e 889a ee3d e0d2 963e
00000380: 9edd a9be 0f25 4d3d 05ba dd3e 5d47 09bd
00000390: fe33 193e cfa1 32be e313 c43c efb3 12be
000003a0: 50cd a2be 2fd2 43bf 24ea 20bf 0bf5 f1bd
000003b0: 431e 853d 10b0 9d3e 754b b1ba 7508 3dbe
000003c0: f570 a2bd 954c bf3e 2831 363e 4360 fcbd
000003d0: 0138 183c ddd2 f1bc 2758 5a3d c95a eb3d
000003e0: 3c6f 823e 062d a4be 9697 193d 438f ba3d
000003f0: 27a8 083e 73af 44bd dbfe c2bc 8bb2 d7bd

mlp.4.bias f4 [64]
-0.088792846 -0.116878465 -0.007367704 0.049903765 -0.09414658 -0.016681131 0.050197806 0.013378911
-0.17562631 -0.096008144 -0.12236094 0.01222089 -0.08822254 -0.113832235 -0.041862063 -0.22686924
-0.23493394 -0.23625903 -0.041595884 -0.2557831 -0.19869244 -0.058261786 -0.10912862 -0.17548887
-0.067370154 -0.29805753 -0.24324389 -0.2216233 -0.14913508 -0.22141258 0.03636219 -0.09651121
-0.15299624 -0.13548678 -0.058551162 -0.052187834 -0.18164513 -0.2366981 0.078738995 0.039019383
-0.19927353 -0.09472513 -0.0326337 -0.18120643 0.03217686 -0.30557227 -0.12506236 -0.061509594
0.026232338 -0.32680154 0.050635554 0.0041307895 -0.01861272 -0.2541682 -0.21131805 -0.15766068
-0.36596498 -0.21591792 -0.2531752 -0.012612401 -0.17528795 -0.17538878 -0.040271413 0.0046852664
00000000: 06d9 b5bd fa5d efbd c86c f1bb e467 4c3d
00000010: eccf c0bd dea6 88bc 379c 4d3d 3833 5b3c
00000020: 62d7 33be eb9f c4bd 5f98 fabd 213a 483c
00000030: 05ae b4bd e020 e9bd 8e77 2bbd 6950 68be
00000040: 8692 70be e3ed 71be 7260 2abd 01f6 82be
00000050: 0876 4bbe e9a3 6ebd d37e dfbd 5bb3 33be
00000060: 5df9 89bd ff9a 98be ed14 79be 38f1 62be
00000070: deb6 18be fbb9 62be 85f0 143d aba7 c5bd
00000080: 0cab 1cbe 0cbd 0abe 58d3 6fbd e9c2 55bd
00000090: 2e01 3abe fd60 72be e941 a13d cad2 1f3d
000000a0: 5c0e 4cbe 40ff c1bd eaaa 05bd 2e8e 39be
000000b0: e2cb 033d f873 9cbe 5910 00be 7cf1 7bbd
000000c0: 33e5 d63c 8852 a7be 3a67 4f3d 935b 873b
000000d0: b479 98bc 5622 82be c263 58be cd71 21be
000000e0: c35f bbbe 9619 5dbe 2ea0 81be 3ea4 4ebc
000000f0: af7e 33be 1e99 33be a3f3 24bd dd86 993b

mlp.6.weight f4 [2, 64]
-0.00905615 -0.0032843086 -0.1321408 -0.10110198 -0.005034287 0.004382855 -0.005361789 0.0013700341
-0.008643356 0.08247832 -0.03674195 0.0003450558 0.03932487 0.00030427467 -0.0023760677 -0.04197876
-0.0066503445 -0.08841755 0.00080662157 0.1720057 -0.0047502005 0.10560967 0.018074693 0.059572335
0.00031953614 0.1371645 0.071938604 0.013083089 -0.23952796 0.023854056 -0.0034560608 0.003786794
0.1693481 -0.00079229503 0.09489524 -0.02265551 0.06875166 -0.010997913 -0.24683401 -0.1740587
0.29007772 -0.003475315 -0.00066796923 -0.028195374 0.0011517764 -0.09934712 -0.008395643 -0.1310627
-0.15403703 -0.2998675 -0.0022257823 -0.02000273 0.020150756 0.2458692 -0.0038699645 -0.18138175
0.029853106 -0.058410898 0.023925733 0.29178932 0.02517622 -0.21655475 -0.0033821624 0.002290497
0.0011428306 -0.009645041 0.09152506 0.13359542 -0.010468065 0.0073907087 -0.004315949 -0.00029506802
-0.029959444 0.04808784 -0.07369633 -0.00545563 0.012592036 0.0002094696 0.005145877 0.077770725
0.0032499265 0.21828923 0.0022243152 0.11996453 0.0025881121 -0.07637533 -0.009474552 -0.09068983
-0.002751616 -0.11714553 -0.023437819 -0.0023778444 -0.17208603 -0.025186041 -0.003647203 0.0031420386
-0.10132085 -0.003502807 0.14508905 0.12945294 -0.072339006 -0.039421465 0.006901514 -0.19182102
-0.025235705 0.0052112476 -0.007986584 -0.07263963 -0.0005205319 -0.12439705 -0.011005653 -0.04010083
0.034551587 0.044766642 0.008568765 0.18093452 -0.22096144 -0.09499758 -0.014678493 0.024678554
-0.07324845 0.18091755 -0.012930746 -0.014972264 0.27323246 0.025899474 0.008720398 -0.0021116529
00000000: 3f60 14bc 8e3d 57bb eb4f 07be 8e0e cfbd
00000010: a9f6 a4bb 0d9e 8f3b f2b1 afbb b792 b33a
00000020: dd9c 0dbc 65ea a83d ba7e 16bd 9be8 b439
00000030: 1d13 213d 0e87 9f39 cdb7 1bbb ecf1 2bbd
00000040: 22eb d9bb 4314 b5bd 7573 533a 4322 303e
00000050: 92a7 9bbb e249 d83d 6111 943c 1f02 743d
00000060: 6a87 a739 da74 0c3e 8c54 933d 745a 563c
00000070: d146 75be 9569 c33c 147f 62bb dc2b 783b
00000080: 9769 2d3e 05b2 4fba 7058 c23d 0c98 b9bc
00000090: accd 8c3d 9730 34bc 0ec2 7cbe 723c 32be
000000a0: 1185 943e 1cc2 63bb a81a 2fba fcf9 e6bc
000000b0: 34f7 963a 8176 cbbd e18d 09bc 4d35 06be
000000c0: e2bb 1dbe 3c88 99be 6ede 11bb c4dc a3bc
000000d0: 3313 a53c 23c5 7b3e 3b9f 7dbb 23bc 39be
000000e0: 808e f43c 4440 6fbd e6ff c33c 6965 953e
000000f0: 5c3e ce3c 87c0 5dbe 45a7 5dbb 2a1c 163b
00000100: 08cb 953a 3c06 1ebc 7e71 bb3d 3dcd 083e
00000110: 3f82 2bbc c22d f23b ce6c 8dbb 5cb3 9ab9
00000120: 826d f5bc c1f7 443d 1aee 96bd 24c5 b2bb
00000130: d44e 4e3c 11a5 5b39 bf9e a83b 4246 9f3d
00000140: b8fc 543b 3687 5f3e d1c5 113b f7af f53d
00000150: 519d 293b ab6a 9cbd 273b 1bbc 97bb b9bd
00000160: 7554 34bb ffe9 efbd ab00 c0bc 9cd5 1bbb
00000170: 5237 30be f552 cebc ea05 6fbb a9ea 4d3b
00000180: 4e81 cfbd 5a8f 65bb 3992 143e 508f 043e
00000190: 7926 94bd 6778 21bd 1826 e23b bb6c 44be
000001a0: 1cbb cebc 1dc3 aa3b 29da 02bc 16c4 94bd
000001b0: 4e74 08ba e1c3 febd 0e51 34bc c540 24bd
000001c0: f785 0d3d 3a5d 373d 0164 0c3c e646 393e
000001d0: b743 62be 178e c2bd 107e 70bc ae2a ca3c
000001e0: 4903 96bd 7342 393e 7bdb 53bc 3a4e 75bc
000001f0: 20e5 8b3e 222b d43c 00e0 0e3c a863 0abb

mlp.6.bias f4 [2]
0.077729546 -0.032876533
00000000: ab30 9f3d 8ba9 06bd
